ML/model.pt (torch, 301873 bytes, 8 tensors)

net.0.weight f4 [256, 126]
00000000: 03ed 103e 4884 84bd 2a00 16be efa9 1fbc
00000010: 7f69 a6bd 851d 053e bb0f e23d 2764 db3c
00000020: ec71 7c3d 5514 c9bc a0c0 04bb 32ec 65bd
00000030: 441c 783d 29c6 debd d764 b5bd 7562 06bd
00000040: c993 debc 9f0f 23be 360e bbbc 5773 42be
00000050: fc5a 15bd 9a41 06be 4364 bebe 2b22 803d
00000060: 1b27 86bd 379b 02bf 9a31 443d 9aff be3d
00000070: 6f04 a1bd d46d 83be cddb 873d 9edc a33d
00000080: 194a c1be 7c29 9abd 4a76 013e 9446 b6be
00000090: 217b 503c d88d 9d3e dc44 c4bd 188e e0bc
000000a0: a06f 11be e76d 5cbe 730c 6ebb 1d3d 1fbb
000000b0: 1e9f ccbe e905 7ebd 14ec 533e fd69 5abe
000000c0: 2bfd 153c 7819 853e 3021 493d c82e 383c
000000d0: 20a7 94bd 1220 dcbd d256 833d 4a43 b63d
000000e0: f95a 64be b8e0 d23c 66ec 313e bbec a9bd
000000f0: 982b 213c bd83 943e eaf0 05bb cc6c c13c
00000100: 7356 1a3d 818a 873d 4a42 873c 38a0 18bd
00000110: cad9 bd3e eb52 903c 8e6d e2bd 4cc2 28bc
00000120: a1f5 543d 82bd 20be 24d7 febd 6b25 6d3d
00000130: ac95 56bd 5edc 2dbe d34f 80bd d093 c0bc
00000140: 3338 0ebe 53bc 45bd 54e2 42be 5546 35bd
00000150: d55e 49bd c601 23be e010 18be eefe 9e3d
00000160: c081 8abe b03f 94bd 38b8 e23c 3b58 7abd
00000170: 1e82 69be a1e5 843d 92be 273a 68c3 a6be
00000180: b510 743d 74bc f13d 8e86 7bbe 59ad 623c
00000190: db10 af3d cc78 28bd f384 e1bc 538b 0abe
000001a0: 48a0 39be 72f8 5fbc d224 5abd 10b8 b6be
000001b0: 30d4 273d d3f9 e03d 8fb4 49be e900 bebd
000001c0: 5f7f f93d 4d2a 39bc ea2d c1bd 479c 25bd
000001d0: 1be1 08be 8214 ebbb bdce bd3d e5e7 1fbe
000001e0: 36d2 463d 58c2 3a3c 4a95 793c 6005 70bc
000001f0: a987 353d c272 813d 9ad0 c4bc 0c14 9ebd
00000200: ef25 a2be e8f4 b03d cbdf 4b3c 2594 0bbf
00000210: 6661 f1bc c107 933d aeec 10bf b58a cb3c
00000220: ab94 9b3d 631f 10bf 4b91 093b 8b3d 0ebd
00000230: 26d3 dfbe 00b2 aa3d ec8c 54bd 04e8 8a3e
00000240: b96c 483d b11b ccbc 2f52 493c 311f afbc
00000250: 4d75 efbd d30d 1d3d 175a ccbd 80db 54be
00000260: 59d1 aebd 600f 0bbd 41da 30be 63d2 873d
00000270: d980 c03c 2937 efbd d49f 213e 6717 543d
00000280: a28e 8fbb 382b dd3d 9a73 ecbb ae76 3cbd
00000290: bc46 ea3d 7391 cc3d acf9 17be a71e cf3b
000002a0: 0453 c93b 332a 583d ecef 8bbe a593 36bd
000002b0: 13be 253e c765 67be e143 a2bc 3c2c 083e
000002c0: 8135 debc b223 8a3d e6ba d7bd c50b bbbd
000002d0: f728 093d 695f 953a a27d f1be e9e7 27bd
000002e0: 2808 d23c ebd5 eebe 4d6b 913b 4f0e d83d
000002f0: 0340 cdbe ef1a 723d 35a1 a03d 9f3f 0e3c
00000300: e783 d33c 52bc c83d 8432 6d3e d898 673d
00000310: 8a7f 0fbc 5634 3b3e 54e0 173e 302b 633d
00000320: 2f10 82bc ebce 673d ca54 d43c a721 10bc
00000330: 1cac 693d 4695 713d 7e8a 733d c535 1f3b
00000340: ce9c 5cbd dbe0 15bd db75 0a3e ad59 c8bd
00000350: b23f b53d 6d9c 133e 1b6f 3dbe 1540 233d
00000360: 7870 e83d 133e 80bb 0275 96bd b4c6 3bbd
00000370: b5bd 80bb 9e04 51be 3138 703d 8b8f 45bb
00000380: dd46 fcbd 4ee0 c7bc 0bed b6bd 379c b3bd
00000390: febe 5d3d dd76 34ba af36 32be 36a6 bbbd
000003a0: ffc6 47bd 454d 7cbe 1125 aebd 7729 463d
000003b0: b228 6abe f94f 29be 7992 1abc 93ad 91bd
000003c0: ed26 543d cc2f 7b3d 74b2 5dbe 773b bbbc
000003d0: 4fdd c23d c2d8 32be 2c17 21be a757 b33c
000003e0: 2939 83be 1d7d 3dbe 37ee b6bd 9d5f 37be
000003f0: a009 69bd 34f5 523e 88e5 3abe 1b71 bcba
0.14152913 -0.06470543 -0.146485 -0.009745105 -0.081255905 0.12999542 0.110381566 0.026781155
0.061632082 -0.024545828 -0.0020256415 -0.056133457 0.06057383 -0.1087764 -0.08857124 -0.03280874
-0.027170079 -0.15923928 -0.022833925 -0.18989311 -0.036463723 -0.13110963 -0.3718587 0.06256517
-0.065504275 -0.5101809 0.047898866 0.09326096 -0.07862174 -0.2566973 0.066337205 0.08001064
-0.37751845 -0.07527444 0.1264278 -0.35600722 0.012724669 0.3077228 -0.095834464 -0.027411506
-0.14202738 -0.215263 -0.0036323338 -0.00242979 -0.39965147 -0.062017355 0.20695525 -0.21329494
0.009154598 0.25995994 0.049103916 0.011241622 -0.07258439 -0.107483044 0.06413044 0.08899553
-0.22300328 0.02574192 0.17375335 -0.08297106 0.009837054 0.29006758 -0.0020437785 0.023611449
0.0376801 0.066182144 0.016511101 -0.03726217 0.37080222 0.017617663 -0.11056052 -0.01030023
0.051992062 -0.15697291 -0.124433786 0.057897013 -0.052388832 -0.16978595 -0.06265225 -0.023507982
-0.13888626 -0.048275303 -0.1903165 -0.044256527 -0.049162704 -0.15918645 -0.14850187 0.07763468
-0.27052116 -0.0723871 0.027675733 -0.0611193 -0.22803542 0.06489111 0.00063989416 -0.32570958
0.059586246 0.11803523 -0.24563047 0.013835275 0.08548137 -0.041130826 -0.027529215 -0.1352971
-0.18127549 -0.013670074 -0.05325777 -0.35687304 0.040973842 0.1098515 -0.19697784 -0.09277517
0.12182497 -0.011301589 -0.094325855 -0.04043224 -0.13367121 -0.0071740756 0.09267948 -0.15615804
0.048540317 0.011398874 0.015233347 -0.014649719 0.04431883 0.063207164 -0.02402525 -0.077186674
-0.31669566 0.08640462 0.012443493 -0.54522926 -0.029465389 0.07179213 -0.56611145 0.024846414
0.075967155 -0.5629789 0.0020991142 -0.03472666 -0.4371578 0.08334732 -0.051892206 0.2713014
0.04893181 -0.024915548 0.0122876605 -0.021377178 -0.11692295 0.038343262 -0.09978121 -0.20786858
-0.08536024 -0.03395021 -0.17270757 0.06631925 0.02349894 -0.11680443 0.15783626 0.05178013
-0.004381017 0.10799259 -0.007215929 -0.04601162 0.11439273 0.0998868 -0.14841336 0.0063207927
0.0061439294 0.05277462 -0.27331483 -0.0445744 0.16185789 -0.22597419 -0.019807758 0.13298124
-0.027125122 0.067450896 -0.10533695 -0.09133104 0.033486333 0.0011396232 -0.47166163 -0.04099265
0.025638655 -0.4664758 0.00443784 0.10549604 -0.400879 0.059107717 0.07843248 0.008682161
0.025819732 0.09801544 0.23163801 0.056542248 -0.008758435 0.18281683 0.14831668 0.05546111
-0.015876858 0.056593817 0.025919337 -0.008797086 0.057048902 0.05898025 0.05945825 0.0024293524
-0.053860478 -0.036591392 0.13521521 -0.09782729 0.088500395 0.1441514 -0.18499415 0.039856035
0.11349577 -0.00391365 -0.07346536 -0.045843795 -0.003928865 -0.20411918 0.05864734 -0.0030145373
-0.123182036 -0.024398949 -0.08931931 -0.0877003 0.054137222 -0.0006884167 -0.17403673 -0.091625616
-0.04877376 -0.24638851 -0.085031636 0.048379388 -0.22867087 -0.16534413 -0.009434336 -0.07113185
0.051794935 0.06132488 -0.21650106 -0.022855503 0.095148675 -0.17465499 -0.15731496 0.021892382
-0.25629547 -0.18504758 -0.089321546 -0.17907567 -0.056893945 0.2060135 -0.18251622 -0.001437697

net.0.bias f4 [256]
00000000: f705 513e b105 8c3e 2b79 20bd 22aa e93d
00000010: c408 903d 771a 8bbd f1bf 79bd 2457 2f3e
00000020: f0cd 9e3c d08a 163e 5d7f a93d 41b5 423e
00000030: 4da9 283a 2b51 60bd 1b94 663c d9b0 be3c
00000040: 9863 ad3c 0132 93bd 3d94 33bc 0e61 5abd
00000050: 5aff 9cbc 3c30 f33d f720 2cbd d541 01bd
00000060: bbf5 143e d74e 833d 69c3 b2bb e3bd efbd
00000070: 20a6 cf3d d2f6 4d3d 6a28 6fbd d5c6 3b3d
00000080: 26da 583d f1e1 e33c 9ef3 a1bc 5025 6b3e
00000090: 4b7b 40bd 8dcd 99bc 74ba 283c d0e0 7dbd
000000a0: 240d 3e3d 5e6e 76bc d115 ddbd 3819 823c
000000b0: 30eb 9b3d 3461 823d 37de 043d 3b78 f5bd
000000c0: bbc7 70bd 3889 43be ec65 8cbc 5e29 703d
000000d0: c517 b3bd 8a65 13bd d2a5 e3bd 2f4e 37be
000000e0: dd2a f63d 2f9e 0c3e e13a 773e e19f c8bb
000000f0: a6ef 22bd ffbc 94bd 0584 7f3c 5977 f73d
00000100: 219e ea3c ba89 b03d ffef febc ae62 2bbd
00000110: 5520 b5bd 6741 033e 3d14 7fbd 3f11 b0bc
00000120: b4e6 53be 345c 58bd a288 58bd 3905 06be
00000130: 3941 8dbd a1e8 6a3e 4a65 333d 785a 94bc
00000140: 31cf 8dbd 5547 a83e b730 df3b 0662 b73c
00000150: f675 253e dd42 4b3c f5d6 993d 62f7 6e3e
00000160: 7d24 843e 0fcc a83d f418 64b9 0609 563d
00000170: 77a3 8ebd 5372 dfbd 1634 11be f8b2 bbbd
00000180: 63eb 813c 0aba 1a3d 7041 783e 192a 023c
00000190: 2d91 16bd eea8 c83d 5b96 b33d 9346 1ebb
000001a0: 3354 8b3e 24b3 96bc 3ced 293d 3b30 0e3e
000001b0: fe31 a0bd 9e58 2fbe 6a60 e13d de4f 9ebd
000001c0: ae3c 3dbd 4a02 c7bb eed0 97bc 984e 94bc
000001d0: 6ff7 193e 6073 adbd 8b41 673d a84f 90bd
000001e0: 11e8 3fbe e7a8 11bd 73f8 ee3d 1378 893e
000001f0: dbb3 583e c598 123d 0efa 993e f578 873a
00000200: 5517 bb3d afca e4bd 121c 17bc be75 bf3d
00000210: 6576 5cbd b263 9a3d 9451 50bc cd7c e43d
00000220: 2e82 cf3d 0819 83bc 61ef 15bd c6c5 1d3e
00000230: 85b4 0ebd f460 63be 1e63 14be d63f 97bd
00000240: 463a 74bd bb66 85bb 39e7 333d 2715 7dbd
00000250: cb0d 77bd a9e8 253e 8f53 53bc 3ed2 e0bd
00000260: ecdc 5e3e 1c56 b3bb efb0 9fbd 30fb 533e
00000270: c0a9 49be bd88 a43e 58a6 1ebe 651b c83c
00000280: 6445 46be 37c8 49bd f4b3 193e 90db 093e
00000290: 907b b4bd 32fb 303e 7cfc e4bd 748e 85bd
000002a0: 1318 e0bb 2295 333d 5866 b5bc 3d42 b8bd
000002b0: f5d7 d4bc f9a0 87bc ee67 37bc b951 8dbe
000002c0: 7ab5 24bd 3df6 33bc c8fe 98bc 87a3 f03d
000002d0: ca53 c83d ca22 4cbd c766 153e af59 673e
000002e0: 7091 b23b e1a1 723e faba febd 28d7 67bc
000002f0: 7377 41be 9068 36be c228 7d3e 3bea f9bc
00000300: 3d94 7cbd f8db 253d 6480 493d 430a f5bd
00000310: 454d 5cbd d334 0ebd 9819 093e 33cd b13e
00000320: 3840 9abd a4ff 14bd 497c dfbd 4d65 22bc
00000330: bf55 8ebd eff4 373e ff2f a2bd a80b 713d
00000340: cfef 503c 53ee aa3e 252c 27bd 3e5a 693e
00000350: c0e0 4a3d 65db 07be 4383 3f3e 6307 2abe
00000360: ff94 913d df09 bebd 3b4d 57be 5311 e93c
00000370: 6e57 153e 2440 9bbd d87c babd 3c37 2f3e
00000380: 3192 fa3d adb7 d63c d409 983d fc90 5b3d
00000390: 46cb 453d 3a07 68bb e8df c93c 6859 843d
000003a0: 86d5 58be 7f89 273d 8fff 16be e49e aabd
000003b0: d7da babd 89b8 163e b4ba 543d 0fd3 d73d
000003c0: 78e3 503e 5fe9 c1bc 4d97 ae3c 0936 da3c
000003d0: 9840 123d 5717 b83c a0c3 b63e 016f 3cbc
000003e0: d800 19bd 4a5b 23be 5d11 da3c f1b8 1b3e
000003f0: af1f 69be cb41 cdbd 35e0 2f3d 7e2b afbd
0.20412432 0.27348092 -0.039178055 0.114094034 0.07032922 -0.06792157 -0.060974065 0.17123085
0.019385308 0.1470139 0.08276246 0.19014455 0.0006433919 -0.054764908 0.014073397 0.023277687
0.021165654 -0.07187272 -0.010960636 -0.053315215 -0.01916473 0.11874434 -0.042023625 -0.031556923
0.14546864 0.06411522 -0.0054554236 -0.1170614 0.10139108 0.050284214 -0.05838815 0.045843918
0.052942418 0.027817698 -0.019769486 0.22963452 -0.04699258 -0.018774772 0.01029836 -0.061981976
0.04639925 -0.015040962 -0.10795177 0.015881166 0.07613218 0.06366196 0.032438483 -0.11985823
-0.058784228 -0.19095314 -0.017138444 0.0586332 -0.08744768 -0.035985507 -0.11115612 -0.17900918
0.12019894 0.13732217 0.24143554 -0.0061225747 -0.039779328 -0.07262611 0.015595441 0.12083311
0.028639855 0.08620019 -0.031120298 -0.041842155 -0.088440575 0.12817918 -0.06227516 -0.021492599
-0.20693475 -0.052822307 -0.05286468 -0.1308793 -0.06897206 0.22940303 0.04379777 -0.018109545
-0.06924284 0.32866922 0.006811227 0.022385608 0.1615828 0.012406078 0.07511703 0.23336557
0.25809088 0.08242046 -0.0002175307 0.0522547 -0.06964772 -0.109104775 -0.14180025 -0.09164995
0.015859311 0.037775077 0.24243712 0.007944607 -0.036759544 0.09797846 0.087689124 -0.0024150952
0.27212676 -0.018395968 0.04148601 0.13885586 -0.07822035 -0.17123649 0.11004718 -0.07730077
-0.046200447 -0.006073271 -0.018532243 -0.018103883 0.15035795 -0.08469272 0.05645899 -0.07046443
-0.1874087 -0.03556147 0.11668482 0.26849422 0.2116236 0.035790224 0.3007359 0.0010335731
0.091353096 -0.11171471 -0.009223001 0.093486294 -0.053823847 0.075385466 -0.012714762 0.11156616
0.10132252 -0.016003147 -0.036605243 0.15407476 -0.034840126 -0.22204953 -0.14490935 -0.073852226
-0.059625886 -0.0040710843 0.043921683 -0.06178775 -0.06031589 0.16202034 -0.01289834 -0.109776005
0.21763963 -0.0054729115 -0.07797419 0.20701289 -0.1969366 0.32135573 -0.15493143 0.024427125
-0.19362408 -0.049263205 0.15010053 0.13462663 -0.0881263 0.17283323 -0.1118097 -0.065213114
-0.0068388074 0.043843396 -0.022143528 -0.08997009 -0.025981883 -0.01655625 -0.011194212 -0.27601412
-0.040212132 -0.010984001 -0.018676177 0.1174994 0.097816065 -0.049837865 0.14589988 0.22592805
0.0054494664 0.23694564 -0.12438007 -0.014150418 -0.18893223 -0.17813325 0.24722579 -0.030507198
-0.06166481 0.04049298 0.04919471 -0.11964848 -0.053784627 -0.034718346 0.1338867 0.34726867
-0.0753178 -0.03637661 -0.109123774 -0.009911847 -0.069499485 0.17964529 -0.07919311 0.058849007
0.012752487 0.33384952 -0.040813584 0.22788331 0.049530745 -0.13267286 0.18702416 -0.1660438
0.07108497 -0.092792265 -0.21025555 0.028450644 0.14584133 -0.07580593 -0.09105843 0.17110914
0.12234915 0.02621063 0.074237496 0.053605065 0.04828956 -0.0035404698 0.0246429 0.064623654
-0.21175203 0.04090261 -0.14745925 -0.08331087 -0.09123772 0.14718832 0.051935866 0.10538303
0.20399272 -0.02367085 0.02131238 0.026637094 0.035706133 0.022472067 0.35696125 -0.011501075
-0.03735432 -0.15952793 0.026619608 0.15207268 -0.22765993 -0.10022315 0.04293843 -0.08553217

net.2.weight f4 [128, 256]
00000000: 148e 02bd 07c1 87bc f1fe 04bc a5b2 53bd
00000010: 6941 81bd a231 a5bb a806 46bc 4d68 69bb
00000020: d02a 4e3d 171d 3abd 54f9 aa3c 0fc9 193d
00000030: 9c78 5cbd d1af 553d 6b1e 67bd 7e73 173d
00000040: 4ac4 67bd 9422 833c 46c2 cfbc 88b4 413c
00000050: 5d0f efbb 575a de3c 28ed 34bd 19d5 80bc
00000060: 0a95 113d 62a5 213d 6079 cebc 3a21 14bd
00000070: ad47 44bd f254 653d 8a0d f63b 1e10 79bd
00000080: 2ac9 853c c0a2 d63b b7b5 00bd da82 f8bc
00000090: 2448 173d a0dd bcbc 342a 89bc 9fdd 51bd
000000a0: a64b 483d 54e8 943c 1056 1e3d 9931 f73b
000000b0: 5ddd 47bd 2ddb a3bc 2fba 3bbc add4 68bd
000000c0: cc0a 02bd b279 f4bc a8b0 1abd 56f4 8b3b
000000d0: 18ec 273c a738 6bbd cbb4 413d 59ae 223d
000000e0: 31a5 483c 119b 3bbd 1a38 1e3d 9475 c8bc
000000f0: 7390 90ba 8981 163d 2d56 28bd 2e9e 673b
00000100: fa9b 66bd 8944 11bd d068 3f3c b705 9bbc
00000110: 7dbc 28bd fa3f 2e3c 2408 243d 2f04 9e3c
00000120: aacd d03c 5cd2 46bd 189d 16bd 4d36 f63b
00000130: b484 0c3c 41d0 1dbd a20b 173d c0e5 7f3c
00000140: da61 253d f08f 913c 0435 cdbb ac47 39bd
00000150: 2e2d 963c ac7a 8f3c 2a6d 6dbd 2c67 3c3c
00000160: 43ed 2f3d 59be cc3c 4cc6 d5ba 0335 063d
00000170: ca3a b5bb eed6 043b b1da 963c 8f46 97bc
00000180: 12fc 623c 334e 64ba 53e3 e4bb b863 323c
00000190: d87d 39bd 8f8d 3e3c ef4e ea3c c1d4 b13c
000001a0: 63c0 89bd d897 38bd eeb8 2a3c 59cb 3ebd
000001b0: 4689 6e3d 6dec ee3c 7be8 bebb 790e 5d3c
000001c0: 7845 d53c fa80 733d e644 0e3d feb5 71bd
000001d0: ba13 c13b e163 7dbd b095 c93c ea00 00bd
000001e0: 0eca 00bd 0040 6c3c 40fe eebb 5350 07bd
000001f0: 6ac8 c53c 60bb 52bd aa33 6dbd 708e bb3c
00000200: d28e 77bd 1ff9 91bc 12ee 4abd 4bce 83bd
00000210: 3611 393d 9de7 443d ea82 9e3c c26b c0bc
00000220: 8abf 4bbd ec79 c73c 05ed 9fb9 7d83 243b
00000230: 62ac 38bd c0cd 42bb ee0c 8c3c 004c 773d
00000240: 1887 dfbc 1277 53bd 44d6 7cbd 5354 a2bc
00000250: a61b 253d 24a3 63bd 505e e23c 9cca 043d
00000260: ed86 163d ea1e ba3a 3b76 1d3d a575 223d
00000270: 4e9d b33b 1028 16bd f531 0bbc c87a 243d
00000280: 1e39 193c e02a e23c 284a 0fbd c214 87bd
00000290: 88c6 533d a37c 743d c3b8 e0bc 168d 383d
000002a0: ca2c 6cbd 843d dc3c 6067 0cbd 1f9a 4d3d
000002b0: c493 443d ac4d 983c 9822 23bd f834 d13c
000002c0: a5f9 123d e344 1d3d 45ef 523c 3c5a c6bc
000002d0: d3f8 293c fda7 51bd cda4 12bd 915e 423d
000002e0: 6062 4e3d 0033 48bd 9860 523d 061f c93b
000002f0: 8ef3 8a3b 65e2 b53c 33a0 3d3d d682 053d
00000300: 08d8 94bc 173e 2bbd ecbb 013d 1238 69bd
00000310: d455 37bc 8a13 473d 9ba2 4dbd a1a2 013d
00000320: 80d1 1b3a 8f50 5b3d fe10 163c 1013 3cbd
00000330: 7e28 783c 8496 ddbc 2d52 63bd dca6 00bd
00000340: f5d9 923c 4e01 113c 418d ca3c c9e6 3b38
00000350: 00f4 273c ae96 80bd 6c99 263d 906d fb3c
00000360: a8dd 70bd 7cbf 72bd 5968 81bd 071b 3d3d
00000370: d744 143c cabd 1bbd 4202 2f3d 004e 983c
00000380: 1492 dcbb 55c8 053c a62b 5dbd 061d b93c
00000390: b467 6b3d fc35 e1bc 735c d13c 8886 433d
000003a0: 7567 07bc d712 013d 5307 8fbd 5050 a63b
000003b0: 703b debc 9247 7dbd a1cd 81bd 6dff 3fbd
000003c0: 859e 913b 4052 773c dcc9 283b c6a4 28bd
000003d0: 726b 7fbd 6a7e 853c 94f0 313d 4599 103d
000003e0: 686b b6bc 6f57 3b3b a664 0d3c e554 2cbc
000003f0: d6ed 81ba 61d1 c73c 3f3f b03b 685c 57bd
-0.031873778 -0.016571535 -0.008117423 -0.05168404 -0.06311304 -0.005041317 -0.012086548 -0.0035615147
0.050333798 -0.0454379 0.020870842 0.03754526 -0.05382596 0.052169625 -0.056425493 0.036975376
-0.05658368 0.0160077 -0.025361191 0.011822827 -0.0072955326 0.027142687 -0.044171482 -0.015726613
0.035542525 0.039464362 -0.02520436 -0.0361645 -0.047919918 0.055989213 0.007508938 -0.060806386
0.016331274 0.006550163 -0.031423297 -0.030335832 0.036934033 -0.023054898 -0.016743757 -0.051236745
0.04890027 0.018177189 0.038656294 0.0075437543 -0.048795093 -0.020001972 -0.011457964 -0.05684345
-0.031748578 -0.029843185 -0.03776613 0.0042710705 0.01024916 -0.057427075 0.04729156 0.039717052
0.012246416 -0.04580218 0.03862772 -0.024470128 -0.0011029377 0.036744628 -0.04109781 0.0035342085
-0.056301095 -0.03546575 0.011682704 -0.018923623 -0.04119538 0.01063537 0.040046826 0.019289104
0.025488693 -0.048540458 -0.03677091 0.0075137974 0.008576561 -0.038528685 0.03687633 0.0156187415
0.04037652 0.01776883 -0.0062624235 -0.045234367 0.01833209 0.01751455 -0.057965435 0.0114992075
0.04295088 0.024993109 -0.0016309707 0.0327654 -0.00553069 0.002026971 0.018414827 -0.018466262
0.013854044 -0.00087091624 -0.006985107 0.010888033 -0.04528603 0.01163043 0.028602092 0.021707894
-0.06726148 -0.045066684 0.010420067 -0.046580646 0.058236383 0.029165471 -0.0058260537 0.01349222
0.026034102 0.059449174 0.034733675 -0.059011452 0.005892244 -0.06186283 0.02460751 -0.03125087
-0.031442694 0.014419556 -0.0072934926 -0.033035588 0.024143416 -0.051448226 -0.0579106 0.022895068
-0.06043894 -0.017818986 -0.049543448 -0.06435832 0.04518243 0.048072446 0.019349534 -0.023488883
-0.049743213 0.024350129 -0.00030503437 0.0025102787 -0.045086272 -0.0029724687 0.01709601 0.060375214
-0.027286097 -0.051627226 -0.061727777 -0.0198156 0.04030957 -0.055575505 0.027632862 0.032419786
0.03674977 0.0014199887 0.03844283 0.039662976 0.0054813987 -0.0366593 -0.008495797 0.040156156
0.009351997 0.027608335 -0.03498283 -0.06595756 0.051703006 0.059689175 -0.027431851 0.045056425
-0.0576599 0.026884802 -0.034278274 0.05019581 0.047992483 0.018591724 -0.039827913 0.025537953
0.03588261 0.038395774 0.012874429 -0.024212949 0.010374266 -0.051185597 -0.035801698 0.047453467
0.050386786 -0.048876762 0.05136165 0.0061377315 0.0042404598 0.02220268 0.046295356 0.032595478
-0.018169418 -0.04180726 0.031673357 -0.05693824 -0.011189897 0.04860262 -0.0502039 0.031649236
0.00059439987 0.053543624 0.009159325 -0.045916617 0.015146373 -0.02704931 -0.05549829 -0.03140913
0.017926196 0.008850409 0.024725558 4.479921e-05 0.010251045 -0.0627874 0.04067366 0.030691892
-0.058805138 -0.059264645 -0.06318731 0.046168353 0.009049616 -0.038022794 0.042726763 0.01859188
-0.006731281 0.008165439 -0.053996705 0.022596847 0.057471946 -0.027491562 0.025556779 0.04773572
-0.008264412 0.031512108 -0.06983819 0.005075492 -0.027127951 -0.061835833 -0.06338049 -0.046874452
0.004443946 0.0150952935 0.0025755083 -0.041172765 -0.062358327 0.01629563 0.043442324 0.03530242
-0.022268012 0.002858605 0.0086299535 -0.010518287 -0.00099128 0.024391832 0.0053786333 -0.05257836

net.2.bias f4 [128]
00000000: 3f78 973c 8253 49bd e62d 51bc 3988 8dbc
00000010: 32e6 153d bd39 083e c821 bc3c ea01 553e
00000020: dc19 75bd cc34 383c 42b9 1a3e 3e57 e63d
00000030: 017e 6abd bebd 603e dea2 2abe 372f 0bbd
00000040: bfbb 10be 7c01 363e 61e6 00be a70f b13c
00000050: 9a0e 173e 4574 d03e 9d92 8cbd 1cf4 ddbc
00000060: 920b 43be 8e27 f1bb 7e30 82bd 0d77 ac3d
00000070: 5e82 253e 439c 703d ba14 c33d 1735 ee3d
00000080: c8b7 5f3d 60d1 74bc 6de3 683d e450 14be
00000090: dafe f5bd 0e6d 72bd f5ee 273d e081 fc3d
000000a0: 782f 223e 2aab 62bd cb96 b53c a328 9e3e
000000b0: ec04 79bc 043a 373e 8ae8 aebd d353 c73d
000000c0: b1d4 a9bd 7971 b13d 7209 3cbd 0f1e 113d
000000d0: 1edd 1d3e 1d3f 953d daac b13d adee 0a3e
000000e0: d0df 703e 5c4c f93d dc66 aabd 7b57 1e3e
000000f0: 5587 64bc 7ebf 233e 799b c83d 981f 4f3d
00000100: c0ae f73c 7bd0 123e 812b 903d d47f c63d
00000110: d282 b1bc d7a8 013b 248d abbd e740 2cbd
00000120: 5503 80bd 2f05 263d ad36 3cbd 3c77 63bd
00000130: 26e9 213e de9b b13d 8d31 c6bd 5319 583d
00000140: dab4 6bbd add1 323d c5b8 cd3b 86a2 0c3e
00000150: 8bdd 103e 3612 7f3c 64c0 4e3e 8c6e bd3c
00000160: f632 a5bd e2ec 7cbd e1cb 90bd 85d5 10be
00000170: ecd2 86bd 473f 88bc 3410 9fbd 17dd b2bd
00000180: 3f17 903d 529d 44bd 2f2f c33c 1966 a0bd
00000190: 5d82 5d3c 2e8b 2c3e 71de 913d cfd2 32bd
000001a0: 2419 06be 028b 473e de66 e63d 0482 893d
000001b0: c11b 453e a147 c3bd 2f80 6ebd 195a d03a
000001c0: b5eb 193e 7894 a0bc 16c8 bcbc c76c abbd
000001d0: c87f f03d 2e6a 92bd d732 2e3e 916a a63d
000001e0: 6098 533d 7e33 e33c 7ad2 b23b 1869 473e
000001f0: f9e3 af3d 2fc3 bb3c 3ec5 e23d d7f5 303d
0.018489955 -0.049151905 -0.012767291 -0.01727687 0.036596484 0.13303275 0.022965327 0.20801511
-0.059839115 0.0112430565 0.15109733 0.11247109 -0.057249073 0.21947381 -0.16663691 -0.033980574
-0.1413412 0.17774004 -0.12587883 0.021613909 0.14751664 0.40713707 -0.06863902 -0.02709394
-0.19047382 -0.0073594516 -0.063569054 0.08421145 0.16163012 0.058742773 0.09525438 0.1163122
0.054618627 -0.014942497 0.056857515 -0.14483982 -0.120115 -0.059186034 0.04099937 0.12329459
0.1583842 -0.055339016 0.02216663 0.30890378 -0.015198927 0.17893225 -0.08540447 0.09732785
-0.08292521 0.08664221 -0.045907445 0.035429057 0.15416381 0.072874285 0.08675547 0.1356761
0.23522878 0.121727675 -0.083204 0.15463059 -0.013948281 0.15991017 0.09795279 0.05056724
0.030234694 0.14337341 0.07039548 0.0969235 -0.021668825 0.0019784474 -0.0837653 -0.042054083
-0.062506355 0.040532287 -0.04595058 -0.055533633 0.15811595 0.086723074 -0.0967742 0.052758526
-0.05754552 0.043656994 0.0062781298 0.13733873 0.14147012 0.015568307 0.20190579 0.023124002
-0.08066361 -0.061749347 -0.07070137 -0.14143951 -0.06583199 -0.016631735 -0.077667624 -0.08733576
0.07035684 -0.048001595 0.02382621 -0.078319736 0.013519851 0.16849968 0.071225055 -0.043658074
-0.13095528 0.19486621 0.11250089 0.06714252 0.19248869 -0.095351465 -0.058227714 0.0015895992
0.15031321 -0.019602045 -0.023044627 -0.08370357 0.11743122 -0.071491584 0.17011581 0.08125795
0.051658988 0.027734514 0.0054572197 0.19473684 0.08588404 0.02292022 0.11072777 0.0432032

net.4.weight f4 [64, 128]
00000000: 650b 563d cd36 5d3e 06ca 6fbd d459 193d
00000010: bc64 02bd b5c9 72be 703a ff3d 0f5d ffbd
00000020: ff5b 38bd 43a7 3f3d dd8b 8dbd 2068 583e
00000030: ce07 123e 7423 8abe b15b 793e 5978 7ebd
00000040: 0abb b03e 341e 71bb 19ac 2bbc 4283 37bc
00000050: 135a 2bbe f10a 67bd ef60 23bd ea42 b9bd
00000060: 7334 9a3d 817e 93bd 99ad e3bc e9e5 96bd
00000070: b22a 0fbe 6d44 003d ec37 f63c 3fd7 f9bd
00000080: 0c8e 71be 00ba 533d 62db 133e 9354 07bc
00000090: 295c 263e 70c8 48bd 3612 103e 5879 d2bd
000000a0: cfa2 14bd 8be8 2a3e 5ae9 8fbd 712c a2be
000000b0: 3d55 133b f389 4abd 27f3 8abd 7666 a43d
000000c0: 725e 96bc 2a70 433d 85c4 9a3b a324 483e
000000d0: 14d2 08be 8e05 5a3e 4428 4f3d c87d 343e
000000e0: cf41 67be 0ec0 1bbd 01b5 90bc 0599 69be
000000f0: 01c4 9b3d 763e 073e c9e8 4a3e aaa5 96bc
00000100: 0fb7 4cbd 0aef 3c3e 9702 f33d a8f6 253e
00000110: b225 483d fb9b 813d 4e02 9a3d c068 b3bd
00000120: e294 12bd f114 ddbd 060d 883e 9c31 60bc
00000130: dcb3 afbd 0a2d 133e 9a9a 17bc ff60 e1bc
00000140: f6a1 a43d 1c9c a8bd 59e8 a73a df4d 5ebc
00000150: 6716 72be 04e3 803d 0adc f2bd 2daf 3b3d
00000160: 7016 6b3d 3868 203d 7c28 b7bc 2a3d b73e
00000170: 3e53 643d 7a51 483c b17f dd3d a71a 373d
00000180: 6a10 203e 0866 38bb 1b9d 6b3d 2bb2 473d
00000190: 8e9e 9a3e 5935 45bd b3b5 25bd 27de 27bd
000001a0: 7c58 12bc 6bd6 adbe 351c 35bc c097 9f3e
000001b0: 4cf7 1dbc 41fb 483e ad5f 183e e61d 6cb9
000001c0: c2e3 73bd edb6 393b 4b8a 2a3e 0726 a23d
000001d0: 9ffc da3d fc4c 413d 9226 12be d2af 773b
000001e0: 0f70 183d 4545 b43d 2baa 15be f96c a33d
000001f0: ce52 143d 85ad f83d 365d 6b3e bccd 553d
00000200: 4e37 6a3d 1470 753d 946e 4cbd 494f 97bd
00000210: d8ae 1e3e 485b 38be 1b2f cebe a8d1 673e
00000220: 0497 313d 1989 9e3b 1cba 883e ea75 35be
00000230: 305e 343e 1234 b1bb 7196 6abd d1fb 68bd
00000240: b5b4 78be 39a0 1f3e 2be1 b23e e048 edbb
00000250: 58f5 57bd 018e 313d 7d3d c43d 3754 37bd
00000260: cb48 df3d b575 adbc 852c 003d c241 45bd
00000270: 05d6 3d3e 7c3b 253e a788 383e a8a3 383e
00000280: 2493 a1be aecf 7abd 8e48 0a3d c2eb 083e
00000290: 5b0d e4bd 89a7 cfbc a962 de3d c82e 993d
000002a0: 81b1 b2bd 434d a2bd ecb8 693d fd27 413e
000002b0: 4b11 7a3d c6ef 3bbe c16e d7bd 9283 aabd
000002c0: d901 b63b ca58 26be c2d8 23bd ca9a babd
000002d0: c136 2c3e 2ec2 633d d6d7 ca3d af8b 863d
000002e0: 608c 8b3e 58ce 2fbd a2d8 05bd e06d 8ebd
000002f0: 63c5 da3d 534c d5bd 431e 32be 541d 8d3c
00000300: 5a7b 85bd ba32 9b3d 0f35 373e 0b71 dabd
00000310: 58b9 a7bc d149 2b3d 23f1 a2bd f084 033c
00000320: 6dac b3bd 803a b93d 5956 7b3d 9fa3 603c
00000330: 3eaa 2ebe 4767 cc3c e26f 453e 17b5 813e
00000340: a3e0 8c3d fa1e 4f3d 2603 28bc d884 093e
00000350: 0f0a 373e f4e8 8ebd d71e 333e 7f13 e6bc
00000360: 6ec3 a0bd a771 b53c 548e abbd da79 adbd
00000370: 0cf9 d03c 99ca af3d 618c 33be d7ae d1bc
00000380: a064 d3bd 104f c13c 7812 73bc 82fd 63bd
00000390: a1ed 4fbe 1f70 8c3c 97de ba3d f046 48bd
000003a0: aa36 0c3d b687 683e 4276 753e dc55 b0be
000003b0: 1a2b e53c 555e e0bd 8e7e 4abe 2e18 073d
000003c0: a5d4 93bd f73a 043d d45b d43d 2562 6e3d
000003d0: 5c61 c63d 3c62 903d 289e 8dbd 67ef 653e
000003e0: 2619 c43c 8d48 edbd 4a11 cb3d 932a 8f3e
000003f0: 01c0 44bd f3d0 c13d d6fe 8c3d 1f65 693d
0.05225696 0.21602936 -0.058542274 0.037439182 -0.03183435 -0.23709758 0.12462318 -0.124689214
-0.04500961 0.046790373 -0.069114424 0.2113347 0.1426079 -0.26980174 0.24351384 -0.06212649
0.345177 -0.0036791684 -0.010478043 -0.011200728 -0.1673358 -0.05640692 -0.039887365 -0.09045966
0.07529535 -0.07201863 -0.027792739 -0.07368071 -0.1398113 0.031315256 0.030055963 -0.12199258
-0.23589343 0.051691055 0.14439157 -0.00825991 0.16246094 -0.049019277 0.14069447 -0.10277051
-0.03628808 0.1669027 -0.0702693 -0.3167453 0.0022481226 -0.049447965 -0.06784659 0.080273554
-0.018355582 0.04771439 0.004723134 0.19545226 -0.13361388 0.21291181 0.05057551 0.17626107
-0.22583698 -0.038024954 -0.017664434 -0.22812279 0.07605744 0.1320742 0.19815363 -0.018389542
-0.049979266 0.18450561 0.11865728 0.16207373 0.048864074 0.06328579 0.07519971 -0.08760214
-0.035786517 -0.1079501 0.26572436 -0.013683703 -0.08579227 0.1437265 -0.0092531685 -0.027512072
0.08038704 -0.082329005 0.0012810334 -0.013568371 -0.23641358 0.062933 -0.11858375 0.045821358
0.057394445 0.03916189 -0.022358172 0.35788852 0.05574345 0.012226457 0.10815371 0.044703152
0.15631261 -0.0028136987 0.057522874 0.0487539 0.30199093 -0.04814658 -0.040456485 -0.040983345
-0.008932229 -0.3395265 -0.011054088 0.31170464 -0.00964148 0.19627096 0.14880247 -0.00022517852
-0.05954338 0.0028337792 0.16654317 0.079174094 0.10692715 0.04719256 -0.14272526 0.0037794006
0.037216242 0.088022746 -0.14615695 0.07979769 0.03621178 0.12142471 0.22984776 0.052198157
0.05718165 0.05992134 -0.049910143 -0.07388169 0.15496385 -0.18003571 -0.40270314 0.22638571
0.04335691 0.0048381207 0.2670449 -0.17720762 0.17614055 -0.0054078186 -0.05727238 -0.056880776
-0.24287684 0.15588464 0.34937415 -0.0072413534 -0.052724212 0.043348316 0.095820405 -0.044758048
0.10902556 -0.021174291 0.031292457 -0.048158415 0.18538673 0.16135973 0.18020879 0.1803118
-0.31557572 -0.061233215 0.0337606 0.13371184 -0.1113536 -0.025348442 0.10858662 0.07479626
-0.087252624 -0.07924893 0.05706112 0.1886291 0.061051648 -0.18353185 -0.105191715 -0.08325876
0.0055544195 -0.16244808 -0.04000164 -0.09111555 0.16817762 0.055605106 0.09904449 0.06569611
0.27255535 -0.042921394 -0.0326773 -0.06954551 0.1068218 -0.10414948 -0.17394356 0.017225899
-0.06517668 0.07578035 0.17891334 -0.106660925 -0.020474121 0.041818444 -0.079561494 0.0080273
-0.08773122 0.09044361 0.061361644 0.013710885 -0.1705713 0.02495159 0.19280961 0.25333473
0.068787836 0.05056665 -0.010254657 0.13429582 0.17874931 -0.06978026 0.17492233 -0.028085468
-0.07849775 0.02214892 -0.08376756 -0.08470507 0.02550938 0.08583564 -0.17534019 -0.025596065
-0.10321927 0.02359727 -0.014835946 -0.055661686 -0.20305492 0.017143307 0.09124487 -0.048895776
0.03423182 0.2270802 0.23970893 -0.34440506 0.027974654 -0.109554924 -0.1977484 0.032982044
-0.07218293 0.032282796 0.10369077 0.058199067 0.096865386 0.07049987 -0.069149315 0.22454606
0.023937773 -0.115861036 0.09915407 0.2796217 -0.04803467 0.09463682 0.068845436 0.056981202

net.4.bias f4 [64]
00000000: 01cc 783d 93d7 073e 3af3 1fbd b1d3 113d
00000010: 6544 f0bc 2d2a 10bd 870d acbd 3bcc 2cbe
00000020: f5a1 513c 7e87 e0bd 2c52 9cba 4e24 e6bd
00000030: 16e1 373e a321 693e 5830 25bb 5c0f 52be
00000040: ddd1 b43d bfb2 e9bd 23e4 bd3b af6a ac3d
00000050: 3cdf dc3d 4be9 0fbd f1ba 0d3e ba9e 1d3e
00000060: bfc5 403e 732b 9b3e 1309 193e 7905 dfbc
00000070: c6b7 bcbd 8606 f2bd cd41 883e a729 2f3d
00000080: 6916 193d 7790 533e 6f53 e53d 5e31 95bc
00000090: a8d2 55bd 60b1 d43d 97d3 e33c 5f70 353d
000000a0: 8d36 ab3d 3e58 bebd cfda bb3e 8cbb b23d
000000b0: 64ee 7c3d 40b0 a5bd 3ca7 17bd 3111 55bd
000000c0: 5efe c13b a5b5 a9bd a7d1 bfbb a717 373c
000000d0: 8f8f dfbd 6e0c 8fbd 7cea 09bd afbb 073c
000000e0: c55d 513e f55d 3dbd bf82 8fbd 597f dd3c
000000f0: 9993 9a3e f598 a03d 7479 4f3d 8f7c 8e3d
0.06074143 0.13265829 -0.03905032 0.035602275 -0.029329488 -0.035196472 -0.08401018 -0.16874783
0.012794961 -0.10963343 -0.0011926345 -0.11237393 0.17956957 0.22766738 -0.0025205817 -0.20513672
0.08829091 -0.11411046 0.0057950183 0.08418786 0.10784766 -0.035134595 0.13840844 0.1539258
0.18825434 0.30306587 0.14944868 -0.02722429 -0.092147395 -0.118176505 0.26612702 0.042764332
0.037374888 0.20660578 0.11197554 -0.018212017 -0.05220285 0.10385394 0.027810855 0.04429662
0.08360014 -0.092941746 0.36690375 0.08727178 0.061750785 -0.08090258 -0.03702472 -0.052018348
0.0059202155 -0.08286599 -0.00585385 0.011175073 -0.109160535 -0.06984793 -0.033670887 0.008284493
0.20445926 -0.046232183 -0.0700736 0.027038263 0.30190733 0.07841674 0.050652936 0.069573514

net.6.weight f4 [16, 64]
00000000: 3d19 24bf 48e6 0b3e e0c3 743c 1c41 9bbd
00000010: aa1c 73bd c399 9bbe 49b8 84be faf5 04be
00000020: f263 95be 17d8 93be f5e0 b4be c034 0f3d
00000030: 483e ff3b 8460 843e c063 13bb 338f 44be
00000040: a0da 063e 2a8d ed3d b7ce 463e a10b 4bbd
00000050: 3258 e53d 75e5 a2bc 5e68 523e b3ae 683d
00000060: 9da7 8a3e 1f57 a33d 2daf fbbd 90cd af3d
00000070: 1e22 a9bd b31f 2fbe 2e6d 45be b190 923d
00000080: 8345 a7bd e066 a03d 9903 423d 6ff2 71bd
00000090: 0f00 ba3d 7a30 01bf f148 973d 02bf d03c
000000a0: 2893 d13d 8302 c0bd 0a0c d3bd 5a3d 16bf
000000b0: 153f e13c 8f5c a73d b7d0 a2bd c3aa 683d
000000c0: ca2c 05be 86ff 8dbe 2ba1 413e 7070 f73d
000000d0: dee2 7c3d f083 91bd 7afe b23e 20ed a8be
000000e0: 1f86 333d 7e30 e9bc 4bcf 99be 8868 933d
000000f0: bda5 a63d 8d6f b0be 1530 c43c 37a1 aa3d
00000100: 6554 773c df7b aebe ec17 393d cf07 92be
00000110: 5810 1fbd ea05 443e fab4 9b3e 8dd2 8dbe
00000120: f8ce a1be f3cc 56be c3dd 343d 68a5 e1bd
00000130: 0fbf b13d fb84 dabc 1c9c 06bd cdbe 543d
00000140: 6ae7 26bd 3ac5 3ebe 838c a8be 514c adbe
00000150: fa6a b5bd 2cb7 3bbe f555 8ebe 26a4 e9bc
00000160: 0971 93be fc9c fd3d 5d0f 903d 7a2d 053e
00000170: a792 07bd ad36 adbd a191 823d 51a1 1f3e
00000180: f6ff b5bd 1141 c9bc 93f5 06be 049c 16be
00000190: 203c 713d 5ff8 343d aad2 92bc 2602 283e
000001a0: 7e43 2abf e099 42bc 247d dc3d 199c e53d
000001b0: a3d8 353c 8118 7fbd d45a 703d 73ce 1f3d
000001c0: 2797 d9be 84d0 323f 7926 adbe 79b9 59be
000001d0: 68ae c9bd c6a3 fdbb 9fac 95bd dc27 523e
000001e0: 7b2f 533e 1693 8ebd 030c 323e 6a10 0bbf
000001f0: 61da 6d3d 687a 7fbe 2284 753d 93af 44bd
00000200: f671 073e 93eb 95be 0010 0fba 4d85 8fbe
00000210: 7a06 c3bc 7bd3 453e 8e90 92be 7f97 cbbd
00000220: dd22 76be 1514 d53e b819 9a3a 0820 61bd
00000230: efc7 d0be f24c d6be 60ed 0ebd 528b a6bd
00000240: a484 29bd 0235 c0bb 11c7 dcbd 9620 25be
00000250: e403 673e e089 ccbd 8d4d f63c 8837 2fbe
00000260: 6968 823e e721 55be 724c 23bf f366 a03c
00000270: 83e8 6cbd 5844 a53d 3bc1 06be 52d6 acbe
00000280: 7df5 f8bc 50c2 033b 5c5e 63bd e969 3abe
00000290: aa6e 6b3d 3a16 02bf df53 b7bd f696 133d
000002a0: 25a1 2e3e 4901 89be 2eec 653a 9da6 883e
000002b0: 628b 8a3e a9f9 94bd fbb8 57bd 81d9 8b3d
000002c0: ed62 3a3d b664 313d eb8c 1f3d 08f6 1a3a
000002d0: a474 893d 3739 f23d 3e43 523e c2cc 1e3e
000002e0: bd72 893d fe60 b8bd 1e47 c4be 8a08 47bd
000002f0: 71d6 ac3d c64c 883d c573 8cbc 710a 193d
00000300: b13c 23bd ab16 55be c498 873d 5878 94be
00000310: a0f6 9cbb 743e 96bd aa51 86be 493e a8be
00000320: 2e5e 4fbc a6ed f33c 5732 e43a 1bbf 043c
00000330: 851e a5be 62d4 febd 3c1c 7fbd a911 0cbe
00000340: b820 f33d dbbc f03b 34fc 46bd 3bd9 4f3e
00000350: 7dd4 3f3e aec7 813c 77d2 cbbd 552a 883e
00000360: 334e 03be 9253 80bd df52 57be ebaf 3f3d
00000370: 1046 79bd 0e8a 0dbb 783d b2bc 7a39 0f3d
00000380: 90e4 8ab9 64bd 123e c981 273e 59b2 edbe
00000390: eb3c ce3d 64ad 9a3d 3e5c 213d 9580 7fbe
000003a0: 35f4 903d a164 e0bd c937 0fbd c042 053e
000003b0: 5686 5f3e 0453 223b 4854 e0be b4be b9bd
000003c0: 13cf e23c a79b 03bd 54e1 153e f365 233e
000003d0: 84e6 af3c 85b3 b8be 7f26 d73e f302 333e
000003e0: 8691 6c3b 8da6 bebc 7392 763c 7fdc f8bd
000003f0: dfd5 103e e87a 80be 5cf0 363c 6139 9cbd
-0.6410101 0.13662064 0.014939278 -0.07580778 -0.059353508 -0.30390748 -0.25921848 -0.12984458
-0.29177815 -0.288758 -0.3532788 0.034962416 0.007789407 0.25854886 -0.0022489876 -0.19195251
0.13169336 0.115991905 0.19414793 -0.049571637 0.111984625 -0.019884804 0.20547625 0.05680723
0.27081004 0.079756014 -0.122892715 0.0858413 -0.082584605 -0.17101936 -0.1927993 0.07156504
-0.08167555 0.07832122 0.047366712 -0.059069093 0.090820424 -0.50464594 0.07386959 0.025481705
0.10233146 -0.09375479 -0.10305031 -0.58687365 0.0274959 0.08171951 -0.079499654 0.056803476
-0.13005367 -0.2773401 0.18909137 0.120819926 0.061739795 -0.07105243 0.34959775 -0.32993412
0.04382908 -0.028465506 -0.30040964 0.07197672 0.08137081 -0.34460106 0.023948709 0.083315305
0.015095805 -0.3407888 0.04518883 -0.28521582 -0.038833946 0.19142881 0.30411512 -0.276997
-0.31603217 -0.2097662 0.0441568 -0.11017877 0.0867902 -0.026674738 -0.03286372 0.051939774
-0.040748037 -0.18629923 -0.32919702 -0.33847287 -0.08858295 -0.18331593 -0.27799955 -0.028520655
-0.28797176 0.12383458 0.0703418 0.13005629 -0.033098843 -0.08457694 0.06375433 0.15588881
-0.08886711 -0.024567159 -0.13179617 -0.14707953 0.05889523 0.044182178 -0.017922718 0.1640707
-0.66509235 -0.011877507 0.10766056 0.11211414 0.0110990135 -0.062279228 0.05868037 0.039015245
-0.42498133 0.6984942 -0.33818415 -0.21262158 -0.098477185 -0.0077404706 -0.073083155 0.20523018
0.20623581 -0.06961648 0.17387395 -0.5432192 0.05806959 -0.24949038 0.059940465 -0.048019003
0.13227066 -0.2928129 -0.0005457401 -0.28031388 -0.0238068 0.19318955 -0.2862591 -0.09941005
-0.24036737 0.41616884 0.0011756932 -0.054962188 -0.40777537 -0.4185558 -0.034894347 -0.08132042
-0.04138626 -0.005865694 -0.107801564 -0.16125712 0.22560078 -0.09987235 0.030066276 -0.17111027
0.25470284 -0.20813714 -0.6378852 0.01958034 -0.057838928 0.08069676 -0.13159649 -0.33757263
-0.030390495 0.0020104833 -0.05550991 -0.18204464 0.057478584 -0.50815165 -0.08951544 0.03603264
0.1705366 -0.26758793 0.000877085 0.26689616 0.27059466 -0.072741814 -0.052666645 0.06828595
0.0455045 0.043308936 0.03895275 0.00059112953 0.067117006 0.11827319 0.20533463 0.15507796
0.06711338 -0.09002875 -0.38335508 -0.048592128 0.08439339 0.06655268 -0.017145047 0.037363473
-0.0398528 -0.20809428 0.066209346 -0.28998065 -0.004790142 -0.07336131 -0.2623418 -0.3286002
-0.0126567315 0.029776406 0.0017410022 0.008102204 -0.32249847 -0.124428526 -0.062282786 -0.13678612
0.11871475 0.007346732 -0.048580363 0.2029771 0.18733402 0.015842285 -0.09952252 0.26594797
-0.128228 -0.0626594 -0.21027707 0.046798628 -0.060857832 -0.002159718 -0.021757826 0.034966923
-0.00026491703 0.1433006 0.16358103 -0.4642513 0.10070213 0.07552603 0.03939461 -0.24951394
0.07077829 -0.109566934 -0.03496531 0.13013744 0.21828589 0.002476872 -0.43814301 -0.09069577
0.027686631 -0.032130864 0.14636737 0.1595686 0.021472223 -0.36074463 0.42021558 0.17481594
0.003609748 -0.023272777 0.015049565 -0.12151431 0.14144085 -0.2509377 0.011165705 -0.07628132

net.6.bias f4 [16]
00000000: 5f7a 153e 6fbb f73d 7b17 403d 139e 623e
00000010: 3c47 563d cdf6 823d 4cbc b1bc 8df0 88be
00000020: 7138 0f3e eba8 073e 165e c0bd fb7e 20bd
00000030: 6979 82bd 8bb7 013e 3231 db3c 0ad2 ffbc
0.14597462 0.12096297 0.046897393 0.22130613 0.05231403 0.0639473 -0.021696232 -0.26746026
0.13986374 0.13248031 -0.093929455 -0.039183598 -0.063708134 0.12667672 0.026756857 -0.031228084
