ML/model.pt (torch, 301873 bytes, 8 tensors)

net.0.weight f4 [256, 126]
000000 d8 c4 31 3c 0c e2 8a bd d9 1c 9b 3d 60 f3 2e 3d
       0.010850154 -0.06781396 0.07573862 0.04271257
000010 19 80 e6 3c 8f df 7a 3d af 55 9c bd 97 af 07 bc
       0.028137254 0.06124836 -0.0763353 -0.00828161
000020 c0 3b 77 bd e4 75 02 bd 99 3f b0 3d f1 78 8a bd
       -0.060359716 -0.03185071 0.0860588 -0.06761349
000030 b3 b7 d2 3c 59 f6 65 bd f6 27 1d 3d 03 f5 8a bd
       0.02572236 -0.05614314 0.038368188 -0.067850135
000040 d5 2a 8f bd 85 0d c2 bc 66 53 85 ba d0 57 af bd
       -0.069905914 -0.023688087 -0.0010171949 -0.08561671
000050 0b 7a 8c bd ea 7e 00 3d 6b 79 24 3d 9b e2 43 3d
       -0.06859215 0.031371035 0.040154856 0.04782353
000060 da eb c0 bc 9a 83 60 bd 1b e6 db 3c 6e a1 20 3d
       -0.023549963 -0.054813005 0.026843121 0.03921645
000070 1f eb 26 3d 16 30 4e bd f7 97 21 bd 12 4e 26 bd
       0.040751573 -0.050338827 -0.039451566 -0.040601797
000080 75 c7 a2 3d f2 81 18 bd 3b 3a be 3c f9 b8 6a 3d
       0.079482 -0.0372333 0.023221126 0.05730531
000090 3c dc 71 bc 6a 04 09 3d d1 74 71 bd db 02 63 bd
       -0.014761981 0.033451475 -0.058949295 -0.055422645
0000a0 3e 5c 0d bd a2 c2 d5 3b 85 c4 ee bc de 73 2e bd
       -0.034511797 0.006523446 -0.029146442 -0.04259097
0000b0 dd 05 8e ba 46 96 19 bd ef 14 41 bd 9f 5f 9e 3b
       -0.0010835488 -0.037496828 -0.047139104 0.0048331763
0000c0 cb 82 a7 3d 4a ba e4 bc cf 6a 91 bd ce 77 93 3d
       0.08179244 -0.02792086 -0.0710045 0.07200585
0000d0 a8 6b a5 bd a3 04 91 bb 47 c4 84 3d 7e 02 81 3d
       -0.080771744 -0.0044256016 0.064827494 0.062993035
0000e0 7e 7e 0f bd 5e b7 9a bd 1e 7c 64 bd 36 e3 2d 3c
       -0.03503274 -0.07554506 -0.05578243 0.010613253
0000f0 8c 95 90 3a 94 bf 67 bd ed 52 49 3d 99 42 57 3c
       0.0011030897 -0.056579188 0.04915135 0.013138437
000100 d6 9e 8f 3d d9 c1 eb 3c e9 41 a9 bc b7 f5 9d 3d
       0.070127174 0.028778957 -0.020661311 0.07712882
000110 79 22 58 3c ab ce b0 3d 9d e5 65 3d 4d 88 ac 3d
       0.013191813 0.08633169 0.05612718 0.08424435
000120 57 83 33 bd 77 43 7a bd b2 22 d8 3c 08 fc 91 bb
       -0.043826427 -0.061099496 0.026383732 -0.0044550933
000130 04 e2 c7 3c 5e db 85 bd df e2 87 bd 78 19 23 3c
       0.024399765 -0.065359816 -0.06635069 0.009954803
000140 bd e6 9c 3c ef f6 7a 3b 83 51 a7 bd b1 88 85 3d
       0.019152993 0.0038294157 -0.08169844 0.065202124
000150 bc 06 9e 3c a0 4b 99 bd ba e0 86 3a c1 7e df 3c
       0.01929032 -0.074851274 0.0010290362 0.02728212
000160 21 44 45 bc f9 df 98 3d 86 d0 15 3b ea e5 71 3d
       -0.012040169 0.074645944 0.0022859885 0.059057154
000170 ef f3 e9 3c f4 7f ab bd 50 6d 9c 3c ef 0e 10 3c
       0.0285587 -0.083740145 0.019095093 0.008792623
000180 0a 36 41 bd c3 29 9c bd 1b fe 67 bd 02 55 87 3c
       -0.047170676 -0.07625153 -0.05663882 0.016520027
000190 74 6d 64 bd 16 af 2d 3d da d0 a6 3d 77 18 a1 3d
       -0.055768445 0.042403303 0.08145304 0.078659944
0001a0 64 69 b2 3d 4e 57 8f 3d 32 a2 1b bd e8 7f 23 bd
       0.08711508 0.06999074 -0.03799648 -0.039916903
0001b0 68 a3 00 bd 5e db 46 3d 2d 0b 16 bd 40 6b 23 bc
       -0.031405836 0.04854905 -0.03663175 -0.009974301
0001c0 b4 ca 44 3c c1 cd b1 3c 5c e1 2b bd fd f4 dd bb
       0.012011219 0.021704556 -0.041962966 -0.0067735896
0001d0 09 d4 45 bd 3d be 3b bd 3c f7 82 bc 65 4e 60 bd
       -0.048297916 -0.045835722 -0.015987031 -0.054762263
0001e0 9c 14 af 3d 20 bb 74 3d 58 25 47 3d 1f b6 b0 3d
       0.08548853 0.05974877 0.0486196 0.08628487
0001f0 f7 73 d0 bc bd f0 10 3d cf ad 07 3e 30 c5 95 3d
       -0.025445921 0.035385836 0.13249896 0.07313001
000200 13 8f b9 bd a3 da 09 3d f5 c9 8b 3d d1 80 fc 3d
       -0.09060492 0.033655774 0.068256296 0.12329257
000210 dc 7d 8f bd c9 d6 b5 3d 83 13 82 3e 2b 10 3c bc
       -0.07006428 0.08878858 0.2540551 -0.011478464
000220 50 b4 be 3d 9c 7a 9f 3e 2b 22 33 3d fe ae 38 3e
       0.09311736 0.3114823 0.043733757 0.18035504
000230 88 1d d1 3e 2e a1 10 be 93 05 b2 3c 8f 55 93 3e
       0.40842843 -0.14123985 0.021731174 0.28776214
000240 2f c7 97 bd df c6 c2 ba a0 d9 c2 3e e3 a2 03 be
       -0.07411038 -0.0014860294 0.3805666 -0.12855105
000250 d0 a9 36 bd 17 e5 05 3f cc e0 49 be 78 3e 1d 3b
       -0.04459554 0.5230269 -0.1971466 0.0023993533
000260 a7 77 bf 3e 19 94 91 bd 58 13 c2 3d 4b 04 c5 3e
       0.37395975 -0.071083255 0.09476346 0.38479838
000270 69 10 14 be d5 30 80 3d fa b4 c6 bb 35 27 2f be
       -0.14459385 0.06259314 -0.0060640546 -0.171048
000280 7f 01 87 3d 27 cf 44 3c 4a 26 e8 bd b1 d0 5c 3e
       0.06592082 0.01201228 -0.11335428 0.21563984
000290 6c c3 00 3e 4f 3d b6 bd 8e 99 e1 bc 71 0a aa 3e
       0.12574548 -0.088984124 -0.02753904 0.3321109
0002a0 46 78 29 be 00 6a c9 bd c4 46 8b 3e f4 b9 29 bd
       -0.16549787 -0.09834671 0.27202427 -0.041437104
0002b0 2d 15 2b bd 18 b1 04 3e f1 f3 13 be ea da 94 3d
       -0.04176824 0.12958181 -0.14448525 0.07268317
0002c0 c4 01 3e 3e bb 01 ef bd e1 b5 df 3d c7 53 70 3e
       0.18555361 -0.11670252 0.109233625 0.23469459
0002d0 9e 67 79 be c0 b6 d4 bb 37 8c 3f 3e 5b 73 87 be
       -0.24355933 -0.006491512 0.18705831 -0.26455197
0002e0 ff 10 8d 3d 97 3f 14 3e 85 6d 92 be 5a 87 ae bd
       0.068880074 0.14477383 -0.28599182 -0.0852191
0002f0 91 9a ab 3c d0 65 c3 bd ad ed c9 3c 8f c7 4c 3d
       0.020947726 -0.095409036 0.024649465 0.049995
000300 c4 bd f6 bd f8 71 8e 3d 25 f8 0f 3f 96 ae 9f 3d
       -0.12047914 0.069553316 0.56238014 0.077969715
000310 0f a1 2b 3e 53 1b 04 3f e3 e1 45 bb 5c a1 1c 3e
       0.16760658 0.51604193 -0.0030194453 0.15295929
000320 3c 41 99 3e 1a 9e 23 3e 10 bc 1a 3e 66 8a 88 3e
       0.29932582 0.1597828 0.15110803 0.2666809
000330 13 19 92 3c 05 d7 cc 3b a0 1f 4f 3f 9c 52 11 3e
       0.017834222 0.0062512183 0.8090763 0.14191669
000340 16 10 86 bd de 17 37 3f ef f7 5d 3d 30 c6 03 3d
       -0.06546037 0.71520793 0.054191526 0.03217143
000350 d8 e6 1f 3f e0 02 30 3e 72 75 2b bd 1a 5a d9 3e
       0.62461615 0.17188597 -0.04186005 0.42451555
000360 6d fd 16 3e 2c 18 28 bd 00 b7 4d 3f cf 72 e0 3d
       0.14745112 -0.041038677 0.8035736 0.10959398
000370 fe 56 0e bd 37 92 df 3e f9 a5 32 3d 4a ef 0d 3d
       -0.03475093 0.4366624 0.043615315 0.034652032
000380 10 4e 9f 3e cc 2f 29 3d a5 ea 5d 3d af db 83 3e
       0.31114244 0.04130535 0.054178853 0.25753543
000390 c8 41 d6 3d 1e c6 58 bd b8 7e cd 3e 2d 94 20 3e
       0.104617655 -0.052923314 0.4013574 0.15681525
0003a0 17 12 03 be bb 12 b5 3e c7 9d 3f 3c 3b d5 75 ba
       -0.1279987 0.35365853 0.011695332 -0.0009377782
0003b0 58 35 9c 3e e5 ce bb 3d 3a 89 00 bd 3c cf 70 3e
       0.30509448 0.091703214 -0.03138087 0.23516554
0003c0 00 73 dd 3d 23 94 2d bc 4a 9f 06 3e 99 5e 0c 3e
       0.1081295 -0.010594401 0.13146701 0.13707961
0003d0 33 d3 94 bd a7 16 f4 3d c1 fb e2 3d 56 36 d1 bc
       -0.072668456 0.11918383 0.110831745 -0.025538605
0003e0 51 50 58 3d b9 7c 01 3e ea 35 c1 3c 9c d9 36 3e
       0.05281097 0.12645234 0.023585279 0.17856449
0003f0 2e 45 c6 bc 3c b8 16 3e 38 2e 26 3d 82 90 46 bd
       -0.02420291 0.14718717 0.04057142 -0.048477657

net.0.bias f4 [256]
000000 83 94 43 bd 96 10 74 3e 7c e7 c2 3d 16 3f 06 3e
       -0.047749054 0.23834452 0.095168084 0.13110003
000010 fe a1 03 3d c1 0c f0 3c 67 0b 27 bd 21 20 59 3e
       0.03213691 0.029302957 -0.04078236 0.21203662
000020 fe da 5d bb 49 05 6e bd 64 86 5f bd 83 92 fc 3d
       -0.0033852453 -0.05811051 -0.054571524 0.123326324
000030 ff 71 28 3d 9d 80 39 3d 2a 95 46 3d c1 2c 3e 3d
       0.04112434 0.04528867 0.048482098 0.0464294
000040 d9 59 d3 bc 54 d9 23 bd b7 25 9e 3c 3e dd c6 bd
       -0.025799679 -0.040002182 0.019305093 -0.09710167
000050 b2 57 2a be f1 11 c5 3d d5 4f 86 bd d0 a3 17 3e
       -0.16635016 0.09622563 -0.065581955 0.14808583
000060 13 5b b0 3d 17 d6 23 3d 45 67 48 be 58 14 5f 3d
       0.08611121 0.039999094 -0.19570644 0.05446276
000070 d6 e1 bc bd 43 b0 93 bd 7b 1e ba bd 57 7c 3d 3d
       -0.09222762 -0.07211354 -0.09087845 0.046261158
000080 27 70 9f bd a1 2b 14 bd 62 48 88 bd aa 08 ff bc
       -0.07785063 -0.03617442 -0.06654431 -0.031132061
000090 a4 0f 11 bc 85 06 5a 3d 75 f9 cf bd 38 b5 5f 3d
       -0.008853827 0.053228874 -0.10155002 0.054616183
0000a0 3a bf 14 3e 58 d3 0c be 59 49 39 3d 8c 76 8e be
       0.14526072 -0.13752496 0.045235965 -0.2782482
0000b0 b1 90 3b be 24 8a 10 bc 77 e0 1a bd 27 45 f5 3d
       -0.18316914 -0.008821998 -0.037811723 0.119760804
0000c0 a1 3b 31 bd 22 16 8a 3c 0d 7a 05 be 94 0b b1 bd
       -0.043269757 0.016856257 -0.1303484 -0.086447865
0000d0 29 c4 3a be dd ab 10 3d 7c ff 1c be c6 7b a4 3d
       -0.18238892 0.03532015 -0.15331835 0.080314204
0000e0 cd 87 07 be 86 a5 f9 bd 9d c4 aa 3a a2 35 65 3d
       -0.13235398 -0.12189774 0.0013028566 0.05595935
0000f0 75 8d 0f be a7 f6 59 3e 38 5b bb bd d8 48 00 3e
       -0.14018805 0.21285497 -0.09148258 0.12527788
000100 46 d7 50 bd e0 3c 2a be f0 7e 69 3d 0e d6 36 bd
       -0.05098655 -0.16624784 0.057005823 -0.044637732
000110 1a 48 50 bd 08 5b 0f 3d 55 d2 ad 3c ac 4f 96 bd
       -0.05085001 0.034998924 0.021218458 -0.07339415
000120 e0 39 57 3e 60 76 b8 3d 61 6b 11 b9 64 a5 4e bd
       0.21018171 0.09006953 -0.0001386828 -0.050450698
000130 ce 36 d2 3c 1f 3e 3d bd a6 b9 8d bd ff 41 5b bd
       0.025660899 -0.04620182 -0.06920175 -0.053529736
000140 f0 61 22 bd 9f 84 14 be 4a 8d 38 3d 23 d6 9d bc
       -0.03964418 -0.14503716 0.04505662 -0.019267147
000150 84 01 2c 3d 6c 9b 57 3e b4 bd c7 3d 8d bb b3 bd
       0.041993633 0.21055382 0.0975298 -0.08776007
000160 48 f2 65 3c 78 08 52 bd 6e f4 e1 3c 50 b7 52 be
       0.014034815 -0.051277608 0.027582373 -0.2057774
000170 55 7c 80 3d 49 b5 1d be e8 79 10 3d 6d da 48 bd
       0.062737145 -0.15401186 0.03527251 -0.049036432
000180 e3 f9 4c 3d 48 37 16 3e 63 39 d0 bc 1f ac 1d bd
       0.050042998 0.14669526 -0.02541799 -0.038494226
000190 e1 88 a1 3d 7c 57 26 3e e7 87 0b be 31 c1 d6 3d
       0.07887436 0.1624431 -0.13626061 0.10486067
0001a0 97 b0 05 bd 8c 85 4f bd 78 1e 9f bc 71 30 97 3c
       -0.032639112 -0.05066447 -0.019423708 0.018455716
0001b0 17 74 21 3e 82 74 09 be 35 c1 47 3e b7 7b 74 3d
       0.15766941 -0.1342335 0.19507296 0.059688296
0001c0 41 03 8d 3d 60 19 b6 bd 2c 15 1f 3e 4c 6f 10 bd
       0.06885386 -0.08891559 0.1553542 -0.03526239
0001d0 68 b0 30 3c 98 a7 f3 bc 65 ba 48 3d 26 de e7 3d
       0.010784246 -0.029743 0.049005885 0.11321668
0001e0 5b 30 7d 3e e2 2d a3 3c ee 7b 97 bd 3f 14 21 3e
       0.24725477 0.01991934 -0.073966846 0.1573038
0001f0 69 92 ab 3d 85 2e 88 bd 8b 23 8e bd 0b 12 97 bd
       0.08377535 -0.06649498 -0.06940373 -0.07376488
000200 53 a6 03 bd 31 f6 c9 bd aa 1b 1a bd 36 fe 01 3e
       -0.03214104 -0.098614104 -0.03762404 0.1269463
000210 fa cf d9 bd b4 ca 0c 3d 0a 46 39 3e c7 bd 15 3c
       -0.106353715 0.034373 0.18093124 0.009139485
000220 4a 0a ed bc ff 40 aa 3d 74 bc c6 bd 87 30 20 3d
       -0.02893557 0.08313178 -0.09703913 0.03910878
000230 38 37 3f 3e c6 35 27 3e a9 02 b9 bd e5 bc 0d bd
       0.18673408 0.16329107 -0.090337105 -0.034603972
000240 68 33 8f 3d d3 4f fd bc fb b8 51 be 6e fc c9 3d
       0.06992227 -0.030921852 -0.2048072 0.098626
000250 c9 cb 9d bd 16 2b 70 3e 9b e1 c4 bb 3d e2 05 3d
       -0.077048846 0.23453936 -0.0060083396 0.03268646
000260 08 44 00 3d 99 57 a7 bd 56 40 ac bb a3 67 13 be
       0.03131488 -0.08171005 -0.005256693 -0.14395003
000270 a4 f2 b5 bc 0b e9 b9 3c 2e bb 65 3e d0 87 20 3d
       -0.022210427 0.022694131 0.22434685 0.03919202
000280 53 52 ce bb 3c 31 d5 3c 44 fe ad bd 5c 9c 94 3d
       -0.006296435 0.026024453 -0.08495763 0.07256386
000290 b6 c1 e0 3d a2 b4 43 bd 2c 2c ea bd 89 05 20 bd
       0.109744474 -0.047779687 -0.11434206 -0.03906778
0002a0 77 cd 5f 3d 05 86 99 bd ac cb 6b 3e 50 a0 a3 bd
       0.054639306 -0.07496265 0.23026913 -0.079895616
0002b0 20 c4 e7 3c b3 45 1a 3d d1 5c b3 bd 11 cd a4 bd
       0.028291762 0.037664127 -0.08757938 -0.08046926
0002c0 11 4c 25 3e 93 96 8d 3c ff 81 38 bd 98 40 63 3e
       0.16142298 0.017283713 -0.04504585 0.2219261
0002d0 e0 be f0 3c 25 a9 a6 3b 2d b9 83 be c1 31 bd bc
       0.029387891 0.0050860816 -0.25727215 -0.023095014
0002e0 b6 39 58 bb 76 14 f6 3c 50 69 ec 3d e5 5d 40 bd
       -0.0032993383 0.030039053 0.11543524 -0.046964545
0002f0 1b 67 89 bd 98 2a b6 3b 59 98 39 3d 4d 74 7c be
       -0.06709119 0.005559277 0.045311306 -0.2465374
000300 ef 5d 1e bd aa 40 50 3d db e9 b1 3d 07 3c d8 3d
       -0.0386638 0.05084292 0.086871825 0.10558324
000310 1b f8 5e 3e 34 b4 de 3d 88 0c 93 bd aa 63 fa bc
       0.21774332 0.10874215 -0.071801245 -0.030565102
000320 37 37 42 3d fe 7a 19 3c 05 e1 c2 bd 81 78 43 bd
       0.04741594 0.0093677025 -0.09515575 -0.047722343
000330 f9 1c 18 3c 73 8a 92 3d 0b 7d 6b 3d b5 c2 b1 3d
       0.009284251 0.07155313 0.057492297 0.086797155
000340 54 8d de 3a 41 8d 80 ba 30 71 06 bc 56 99 14 be
       0.0016979375 -0.0009807722 -0.008205697 -0.14511618
000350 2f 5d 7b 3d 06 03 37 be d6 82 80 3d 34 9a 5c bd
       0.061368164 -0.17872247 0.06274955 -0.053857997
000360 cf d4 80 3d 89 25 8a be 25 f2 58 bd 04 fe 24 be
       0.0629059 -0.26981762 -0.052965302 -0.16112524
000370 f9 83 90 bd 13 eb 5e 3c f6 b5 8a bc fc fa a2 3c
       -0.07056422 0.013605851 -0.016932469 0.01989507
000380 9c 90 94 3d 76 1f 5c 3c 11 70 d8 bc aa 40 b0 bd
       0.072541445 0.013435235 -0.026420625 -0.08606084
000390 da 10 83 3d b1 15 2a 3d 8e 53 29 bd 73 ed f0 bc
       0.063996986 0.041524593 -0.04133945 -0.0294101
0003a0 d9 00 b4 bd d1 f0 28 be 48 3e 7a 3d a1 b8 b5 bc
       -0.08789224 -0.16498114 0.061094552 -0.022182764
0003b0 c9 c4 a6 bd 74 98 04 3e 5e 99 28 3e f0 ac ea 3d
       -0.081430025 0.12948781 0.16464755 0.114587665
0003c0 ab 56 9c 3c 64 c5 f2 3d 14 8d 8a bd be 07 5e bd
       0.019084295 0.118540555 -0.0676519 -0.054206602
0003d0 43 95 4e bd 69 40 45 3e bd 42 2c 3d 62 6d 5f be
       -0.050435316 0.19262852 0.042055834 -0.2181907
0003e0 79 68 93 3d 17 7d 0a bd e1 ce 09 bc 5e bb bd 3d
       0.07197661 -0.0338107 -0.00841114 0.09264253
0003f0 a8 d5 25 bd 87 c7 ee 3d 5d 88 ad bd 33 60 50 3e
       -0.04048696 0.116591506 -0.08473275 0.20349197

net.2.weight f4 [128, 256]
000000 e8 f9 86 3c ae e9 49 bc a1 5d 96 bc cc ee 84 bd
       0.016476586 -0.01232378 -0.018355193 -0.064908594
000010 00 b2 a5 3b 60 ff 1b 3c 49 4d fd bc 8e 1c 36 3d
       0.0050566196 0.009521335 -0.030920641 0.044460826
000020 94 ee 88 3c 7c 9f 07 3d 7a 0f 52 bd 1a a3 57 bb
       0.016715325 0.03311108 -0.05128429 -0.0032903613
000030 a0 88 3d bd 23 b6 4b bd aa 2c 06 3d 44 64 16 3d
       -0.046272874 -0.049734246 0.03275744 0.036716715
000040 ec 55 43 bd 6e 82 40 3d 9a a3 91 bc 73 ae 6d bd
       -0.047689363 0.046999387 -0.017778207 -0.058027696
000050 fa ca 4b 3d e4 8d 0f 3d 74 49 90 3c 05 46 70 bd
       0.04975412 0.035047427 0.01761315 -0.058660526
000060 d7 40 61 bd 53 03 44 3c 30 30 02 bd f9 2b 32 bc
       -0.054993477 0.011963683 -0.031784236 -0.010874742
000070 bb 3d 0b bd 48 1f 07 3d 65 65 06 bc 92 88 7a bc
       -0.033994418 0.032988816 -0.008202885 -0.01529135
000080 44 43 56 3d 26 0f d5 bb 5e 54 76 3d 87 20 b3 3c
       0.052310243 -0.00650205 0.060139053 0.021866096
000090 07 9c 1d bd a3 00 53 3d aa 5f 32 bd 66 3f 6c 3d
       -0.038478877 0.05151428 -0.043548264 0.05767765
0000a0 3a 38 9a bd ba 44 18 3d 4c 21 d7 3c d5 2f 44 bd
       -0.075302556 0.037174918 0.026260994 -0.04789718
0000b0 8e 83 c5 bc d9 93 3d 3c 2f cd e1 bc 61 e8 af bb
       -0.024110582 0.011570894 -0.02756366 -0.005368278
0000c0 e9 10 0e bd fb 48 38 3d 36 6f 62 3d 98 8c 19 3d
       -0.034684096 0.044991475 0.05528184 0.037487596
0000d0 f2 3d b2 3c a4 26 b8 bc 0c 9b f7 3c 50 26 85 bc
       0.021758053 -0.022479363 0.0302253 -0.01625362
0000e0 39 bc fa bc 83 0a 96 bc 59 6e 81 bd c8 0c ba bc
       -0.03060733 -0.01831556 -0.06319875 -0.022711173
0000f0 2c c6 41 bd 0c 1d e5 3c 9d 04 e4 bc ec b5 41 bd
       -0.047308132 0.027967952 -0.027834231 -0.047292635
000100 76 67 37 bd dd 7a 7d 3c 1b 4c 9f bc f0 d0 89 3c
       -0.044776402 0.015471187 -0.01944547 0.016823262
000110 a0 33 30 bd a3 40 4c bd 04 4b c4 bc ec 35 53 bd
       -0.043017983 -0.04986633 -0.023961551 -0.051565096
000120 a3 bb 13 bb b4 9b 38 bc 85 57 bf 3a b0 29 05 3d
       -0.002254226 -0.011267591 0.0014598226 0.03251046
000130 e7 5c 3c bd a0 c0 69 bc a5 f0 91 3c 50 86 71 3c
       -0.045987036 -0.014267117 0.017814944 0.014741495
000140 c0 b7 f1 ba 10 c0 80 bb e6 ba 03 3d f2 74 62 bd
       -0.0018441603 -0.0039291456 0.032160662 -0.05528731
000150 ea 3c 52 bd c2 3c c9 bc 15 10 0a bd 00 c1 bf b9
       -0.051327623 -0.024565104 -0.033706743 -0.00036574155
000160 ce 7c d1 3b 1a d1 8d bd 44 6d 00 3d 77 db 2d bd
       0.0063930517 -0.069246486 0.031354204 -0.042445626
000170 27 8c 38 3d 8a 3e 4e 3d 45 51 4c 3d aa 8a 59 3d
       0.045055535 0.05035261 0.049882192 0.053110756
000180 20 95 19 bb 26 31 d4 bc d0 f4 cd bb 35 21 33 bd
       -0.0023434833 -0.025902342 -0.0062852874 -0.04373284
000190 1c a9 b8 bc 5b ed 23 3d 5c f8 b4 3c b7 26 dc 3c
       -0.022541575 0.04002128 0.022091083 0.02687393
0001a0 31 74 52 3d f4 59 58 3d 66 a7 33 3b 64 a0 93 bc
       0.05138034 0.05282016 0.002741301 -0.018020816
0001b0 40 ba 5f 3b eb 53 2b bd 89 7e 8c bc 2c d6 92 bd
       0.0034138113 -0.041828077 -0.01715018 -0.07169756
0001c0 09 66 58 3b 48 52 7f bc 7b a7 f9 bc 48 ff e7 bc
       0.0033019802 -0.015583582 -0.030475369 -0.02831997
0001d0 d8 32 2a bc a5 a2 1a bd 86 2e f2 3c c5 3f 08 3d
       -0.010388099 -0.037752766 0.0295632 0.03326394
0001e0 0c c2 8b bb fe be 16 3c d8 ae 24 bc 79 c3 b0 ba
       -0.0042650755 0.0092008095 -0.010051452 -0.001348599
0001f0 89 ba 83 bc 5c 78 13 3d 77 5a 31 bc 9e ba 1b bc
       -0.016080158 0.036003456 -0.010824791 -0.009504942
000200 2f cf 22 bd c0 e4 30 bc 97 76 56 bd d3 03 ec 3c
       -0.039748367 -0.010796726 -0.05235919 0.028810417
000210 c8 3e 13 3c b7 14 4a bd 2d 9f dd bb 4f c5 9d bc
       0.008987136 -0.04933616 -0.00676336 -0.019259123
000220 00 d0 81 3b 80 13 54 3d 00 94 dd b9 ec 90 bd 3c
       0.003961563 0.05177641 -0.00042262673 0.023140393
000230 08 07 0e 3d 5f bc e4 bb c0 12 0a 3d 60 91 3b 3b
       0.034674674 -0.0069804634 0.033709288 0.0028620586
000240 5d f8 66 3d ba 7e 38 3d 00 40 91 ba 9a 3c a7 bc
       0.0563892 0.04504273 -0.0011081696 -0.02041464
000250 67 21 00 3d 43 ea 75 bd c2 0e 99 b9 aa a1 3d 3d
       0.031281855 -0.060037863 -0.0002919343 0.046296753
000260 7c 0d 20 bd c7 49 12 bc 08 00 f8 3c 17 f9 6c bd
       -0.03907536 -0.008928723 0.030273452 -0.057854738
000270 f5 e4 3b bd 28 03 ac 3b 58 06 1a bd ed 7b 97 3c
       -0.045872647 0.0052493997 -0.037603706 0.01849171
000280 78 8d 62 bd e6 55 a7 ba 48 56 5d 3d 0c db c5 bc
       -0.055310696 -0.0012766689 0.054037362 -0.024152301
000290 a3 e7 07 bd 70 5b 5c bd 1d 58 64 bc c6 e6 6c 3c
       -0.03317989 -0.05379814 -0.0139370235 0.014459318
0002a0 cc c7 8f bd 95 41 81 3c 27 f1 02 3d d4 46 b5 3c
       -0.0702053 0.015778342 0.031968262 0.0221285
0002b0 67 f7 1f 3d 5e 1b 88 3c 80 6f 1f 3a 27 d7 f2 3b
       0.0390543 0.016614612 0.00060819834 0.007410902
0002c0 52 ad 71 bc f8 ee 2f 3d 98 92 55 3c 8d 28 37 39
       -0.014750795 0.042952508 0.013035439 0.00017467346
0002d0 71 35 84 3c cc 91 1b bd 78 76 82 ba a6 42 0b 3d
       0.016138764 -0.03798084 -0.0009953519 0.033999108
0002e0 11 8c ce 3c 68 43 13 bd 9d 16 35 3d 50 1b d6 bc
       0.025213273 -0.035952955 0.04421102 -0.02613607
0002f0 90 6d cd 3c 92 f3 6a 3d 95 36 8a bd e0 f6 e7 3c
       0.025076658 0.057361193 -0.06748692 0.028315961
000300 cb 80 64 bd b6 3f 17 3c d0 12 af bc 20 8b 8f bc
       -0.05578689 0.009231498 -0.021371275 -0.017522395
000310 39 78 af bc 70 fa 36 3d 5f 71 2f 3d f2 4b 20 bd
       -0.021419631 0.04467243 0.04283273 -0.039134927
000320 5d 10 82 bc 0f ad 91 bc d6 16 35 3d a4 3d 9e 3c
       -0.015876943 -0.017782716 0.04421123 0.019316502
000330 56 07 37 bd 9c cc 18 3d d8 07 3e bd 50 4a 48 3c
       -0.04468473 0.037304506 -0.0463942 0.012224749
000340 e4 d7 98 bc 21 d7 51 3d 38 91 7e bc 43 f4 6e bc
       -0.018657632 0.051230554 -0.015537553 -0.014584604
000350 59 8e 21 bc ec 34 61 bc f4 88 5f 3d 8d 14 52 3a
       -0.0098605985 -0.013745528 0.054573968 0.00080139266
000360 bd cd 06 3c 78 a0 cb bc 9c 80 53 bd 7b 75 99 bc
       0.008227763 -0.02485679 -0.051636323 -0.018732777
000370 09 ee 64 3d b1 f3 4c bc c6 84 8d bc b1 c6 64 bc
       0.05589107 -0.012509272 -0.017275225 -0.013963387
000380 7b e5 06 bd cb 61 a1 3c 22 64 4c 3d 7c 99 a5 bc
       -0.032933693 0.019699952 0.04990018 -0.020214789
000390 ad a6 41 bc 7e 3f ab bc ae ed 01 bd 5f 12 60 bd
       -0.011819524 -0.020904299 -0.03172081 -0.05470502
0003a0 e6 c4 be bc e2 51 5b bc 7b b2 93 3c 20 45 4a bd
       -0.023287248 -0.013386222 0.018029442 -0.04938233
0003b0 00 2a 7a bd fe 72 04 bd d4 1b be bc 14 25 2c 3d
       -0.06107521 -0.032336228 -0.023206629 0.042027548
0003c0 c8 35 82 bc e7 78 0d bd 7f 8d a7 bc ae 42 1a 3d
       -0.015894786 -0.03453913 -0.020453213 0.037661247
0003d0 6c 45 e4 3c 01 03 8c bc 04 f3 ac bc c6 d9 c4 bc
       0.027865134 -0.017091276 -0.021111973 -0.024029624
0003e0 98 cd ef bb 9d fc f0 3c b7 02 fd bc 7b d5 1e bd
       -0.00731821 0.02941733 -0.030885084 -0.03877781
0003f0 b9 93 de ba 64 2f d6 3c 90 61 5d bd e5 8d d3 bc
       -0.0016981281 0.026145644 -0.05404812 -0.025824497

net.2.bias f4 [128]
000000 a2 35 2d bd fd 70 0c bd 50 c4 d7 bc 61 68 b4 3b
       -0.042287476 -0.03428744 -0.026338726 0.005505607
000010 08 95 02 3d 12 d3 7c bd 6e dc e3 bb f4 d6 2a bd
       0.03188041 -0.06172473 -0.0069537675 -0.0417089
000020 88 f3 bd bc 28 b1 94 bd 0f 0a 6c bd b6 4c 56 bd
       -0.023187414 -0.072603524 -0.05762678 -0.05231925
000030 6c ee ec bc 23 5d 9b bc c0 c6 98 bc 01 bf 55 3d
       -0.028922282 -0.01896531 -0.018649459 0.05218411
000040 ec d2 26 bd 5d 97 74 bd 24 c5 8f bd ce 3f 7e bd
       -0.040728495 -0.059714664 -0.070200235 -0.062072568
000050 a4 e1 17 bd 09 5d db 3d a8 6b 63 bd 7e 86 bb 3d
       -0.037080422 0.107111044 -0.05552259 0.09156512
000060 c4 d5 3e 3d 79 8d e6 bd 20 75 bd 3d 8c 9f f3 3c
       0.04659058 -0.112574525 0.092508554 0.029739164
000070 43 f5 8f bc 09 1d 40 3e 84 f9 ee bb 0c 68 8c 3d
       -0.017573005 0.18761076 -0.007292928 0.06855783
000080 40 cf 9f 3b ab bf cc ba 32 57 20 3e 0e 69 ac bd
       0.004877001 -0.0015621086 0.15658262 -0.08418475
000090 76 4b 17 3e 5b c9 79 bb 3a b5 db bc bd 15 77 3e
       0.1477488 -0.0038114402 -0.026819814 0.24129386
0000a0 49 9f f3 3c 04 ea 20 3e aa a4 76 bb 2e 52 08 3d
       0.029739039 0.1571427 -0.0037634769 0.033281498
0000b0 29 8e a9 bd 96 b8 49 3d 79 ec b5 3c c5 d2 58 3d
       -0.08279068 0.0492483 0.022207486 0.05293538
0000c0 23 d0 53 be 91 2c 4f 3d 41 49 2c 3e ed 00 78 bd
       -0.20684867 0.05057961 0.16824819 -0.060547758
0000d0 be 02 51 3e b9 64 14 bd 4d 24 a8 bd 3c a6 1a bd
       0.20411202 -0.03622887 -0.08210049 -0.03775619
0000e0 06 9f 0c bc bd 1f 89 3d 16 f8 6a 3e 58 ad d3 3d
       -0.008582836 0.06695507 0.229462 0.10335797
0000f0 69 12 d3 3d 78 17 c1 3c b0 3d 66 3c 42 67 37 bd
       0.10306246 0.023570761 0.014052793 -0.04477621
000100 60 9e 29 3e 50 a7 3a bd 92 5c e9 bd 56 2e af 3d
       0.16564322 -0.045569718 -0.113946095 0.0855376
000110 77 0d be 3d 67 ac 80 3d 36 ec 84 bc 1c 68 4b 3e
       0.09279912 0.06282883 -0.016225915 0.19863933
000120 8a 72 09 be e6 b5 31 3e 96 7f 4a 3d 15 09 a3 3d
       -0.134226 0.17354545 0.04943808 0.07960717
000130 67 6f 77 3d 59 78 74 3e 48 35 7c 3e 10 f3 07 be
       0.060408976 0.23874034 0.246297 -0.13276315
000140 8f bb cd bc 24 46 c5 bd 39 e1 01 3c d8 45 d3 bc
       -0.025113849 -0.09632519 0.007927232 -0.02579014
000150 58 1a 19 3d b1 ea 27 3e 57 82 94 3d 73 60 fd 3b
       0.03737864 0.16398121 0.07251423 0.007732445
000160 2c 1f 10 3d c0 82 25 bc 9a 0d 89 3d db b5 aa bd
       0.035185978 -0.010101974 0.066920474 -0.083354674
000170 a4 65 81 3d 6b 03 a6 3c 99 7c ad 3c 6a aa 1c bd
       0.063182145 0.020265302 0.021177577 -0.038248457
000180 9c ff b5 bc e7 d2 1c 3e 2a 3c c0 ba 97 2b 5b bd
       -0.02221661 0.15314828 -0.0014666368 -0.053508367
000190 3d f7 da 3d 3f d4 fd 3d 79 5b d2 bb 8a 78 9f bd
       0.10691688 0.12393998 -0.006419596 -0.07786663
0001a0 46 83 00 be 3c 1b 3c 3e 64 f3 0e bd 65 7a 1f 3e
       -0.12550077 0.18369764 -0.034900084 0.15574034
0001b0 51 28 b9 3d e6 87 80 3c 6d 90 2f be 78 32 31 3e
       0.09040893 0.015689801 -0.17144938 0.17304409
0001c0 48 9c 2e 3e 1e 1d ce 3d 4c 9e 4a bd 17 12 31 bd
       0.17051804 0.100641474 -0.04946737 -0.043230142
0001d0 1e 04 35 3e 48 f8 41 be bd d4 cf bc d2 b7 d0 3d
       0.17677352 -0.18942368 -0.025369996 0.10191311
0001e0 62 1b e8 bd c0 b6 1b bd ea 87 3b 3e be 82 94 bc
       -0.11333348 -0.03801608 0.18313566 -0.018128749
0001f0 fd b3 9f bd bd 5a 06 3c e1 d2 e2 3d de eb 1e 3e
       -0.07798002 0.008200345 0.11075378 0.15519664

net.4.weight f4 [64, 128]
000000 e2 4a 98 3d 39 a5 86 3c 10 0c 9b bd fb dc b2 bd
       0.07436158 0.016436206 -0.0757066 -0.08733555
000010 3f 15 2d bc 31 cb 1a 3d 0e bf 87 3d 4a b7 1b 3d
       -0.0105641475 0.037791435 0.06628238 0.038016595
000020 a1 40 88 3d 76 13 38 3d 32 2f 2b bd 44 1d 80 bd
       0.06652952 0.044940434 -0.041793056 -0.06255582
000030 01 a2 29 bd f9 e4 4d 3d d0 f4 22 bd a4 a8 42 bd
       -0.041414265 0.050267193 -0.039784253 -0.04752411
000040 36 0d cf 3c 8e d9 42 3d 3c 15 92 3d e8 68 b4 bd
       0.025274854 0.047570758 0.071329564 -0.08809072
000050 9a 91 2d 3d 1a f4 ae 3b eb 87 9d bd dc ed 10 bd
       0.042375185 0.005339158 -0.0769194 -0.03538309
000060 da 32 4e bd ed 88 17 bd 35 59 72 bd d3 51 6a 3d
       -0.050341465 -0.036995817 -0.059167106 0.05720694
000070 c5 ac 41 bc 69 05 a0 bd a5 71 70 bc 3c 68 46 bd
       -0.011820977 -0.07813532 -0.0146755325 -0.04843925
000080 47 25 70 ba 80 c3 51 3c f7 a4 cf bc d5 51 ab bc
       -0.0009160828 0.0128029585 -0.025347216 -0.020913044
000090 e3 5a b8 bd fe 00 81 3d 0b 16 4c 3c d5 0a e6 bc
       -0.0900171 0.06299017 0.012456427 -0.028081337
0000a0 ef 62 6d 3d 29 4d 3a 3d 58 fa 46 bd 10 f9 ab bd
       0.05795568 0.045483742 -0.04857859 -0.08397114
0000b0 1d dc 1d 3d ca f0 84 bd 65 b4 9a 3c f5 8d a3 3d
       0.038539995 -0.06491239 0.018884847 0.079860605
0000c0 2c d5 5c bd 06 5e 82 b9 c2 34 07 3d 83 0c 9d 3d
       -0.053914234 -0.00024865585 0.0330093 0.07668402
0000d0 9b 5d f8 3c b1 bc 62 3d 22 b4 3f bc 92 75 4c 3d
       0.030318072 0.05535573 -0.011700662 0.04991681
0000e0 64 e2 fb bb 87 2a 22 bd c9 f8 1b bd df fa 61 3c
       -0.0076869 -0.03959134 -0.038079057 0.0137927225
0000f0 29 6f 8e ba 91 46 07 3d 8d dc 4c bd 67 9f 6f 3d
       -0.0010866869 0.03302628 -0.05001502 0.058501627
000100 db d0 26 3d d2 27 59 bd 45 db 8e 3d 54 bf f1 3c
       0.040726524 -0.05301649 0.06975416 0.029510178
000110 e2 64 24 3d cf 3f bf bb e7 2d 01 3d b4 9a b8 bd
       0.04013527 -0.005836464 0.031537917 -0.09013882
000120 99 41 de bc a2 ad 6e 3d 91 2a 86 3d dc 55 6e 3d
       -0.027130889 0.058271058 0.06551088 0.05818735
000130 e5 62 9a ba 5f 98 52 3d ff a6 92 bc 99 f1 c1 bd
       -0.001177874 0.051414844 -0.017901896 -0.09469909
000140 37 89 09 bd 6c 2c 53 3d 6c 5d 2e bc 46 19 25 bc
       -0.033578124 0.051556036 -0.010642391 -0.010076826
000150 5f 2b c8 ba cb 4c 76 bc c3 06 b0 bd 73 6b 03 3d
       -0.0015271715 -0.015032957 -0.0859504 0.032084893
000160 03 0d 04 bd d7 06 8e 3d 85 0e 49 bd 05 2c 25 bd
       -0.03223897 0.06934898 -0.049086113 -0.040325183
000170 a1 c6 12 bd be 59 67 bd 80 27 b1 bd 8c 03 48 3d
       -0.03583396 -0.05648207 -0.08650112 0.048831508
000180 f3 08 d1 bc 38 bd 50 3d c8 14 41 bd bc 5f 7f 3d
       -0.025516963 0.050961703 -0.04713896 0.06234716
000190 29 ec 4f 3d ee cb aa bd 29 28 0d 3c dc 2d 2f 3d
       0.05076233 -0.08339678 0.008615532 0.042768344
0001a0 df f4 05 3d f4 33 00 3d ef f9 9f bd 8b 8b 2a 3d
       0.03270423 0.031299546 -0.07811343 0.041636985
0001b0 fb 94 84 3d ea 2d 25 bd b9 9e 3c bd a7 c8 a8 bd
       0.06473728 -0.04032699 -0.046049807 -0.082413964
0001c0 20 c3 85 3c 40 1c 75 bd e5 9c 10 bd 5c f7 87 3d
       0.016328394 -0.059841394 -0.035305876 0.06638977
0001d0 95 22 50 bd fc 6b 61 bd d1 a0 71 3d d7 14 92 3d
       -0.05081423 -0.055034623 0.058991257 0.07132881
0001e0 e0 41 56 bd fa 57 44 ba 03 11 b8 bd 7a f5 a8 3c
       -0.052308917 -0.0007489916 -0.0898762 0.020624865
0001f0 98 74 81 bd 72 3c b8 bd c9 99 96 3d e0 c0 cb bc
       -0.063210666 -0.08995904 0.07353551 -0.024872243
000200 ec a6 f4 bc 8b 40 2b 3d 43 02 09 bb e6 1f 63 bd
       -0.02986475 0.0418096 -0.002090589 -0.055450343
000210 c5 cd 39 bd dc ef fd bb 40 e5 a1 bc dd d8 5a 3c
       -0.045362253 -0.0077495407 -0.019762635 0.013357368
000220 fa 76 92 3d 74 b2 12 bd d6 92 7c 3d 4c cb 56 3d
       0.07151599 -0.035814717 0.06166347 0.052439973
000230 de e5 15 bd 5c 91 9b bc 44 2a 32 bd 69 ab f8 3b
       -0.03659617 -0.018990211 -0.04349734 0.007588793
000240 c6 30 51 bd d7 19 2f 3c 8e 0e 1b 3d 43 9b d5 bc
       -0.051071905 0.010687313 0.037855677 -0.026075011
000250 96 14 88 bc 04 f5 ad 3d d6 cc 16 3d 4e 6a 3c bd
       -0.016611379 0.08493999 0.03681644 -0.045999818
000260 9a c4 83 bd 81 b3 9e bd 96 3d 50 3d b0 75 99 bd
       -0.06433983 -0.077490814 0.050839983 -0.0749315
000270 d9 36 58 3d 29 ef b0 bd 6a e6 27 3d db 79 d0 bb
       0.05278668 -0.08639366 0.040991224 -0.0063621826
000280 14 01 0c 3c df 34 7e bd 6e c1 f1 3b d3 08 42 bd
       0.008545179 -0.06206214 0.007377795 -0.047371697
000290 1e e0 64 bd 6c ec 49 bd 58 59 a4 3d dc 47 ec 3b
       -0.055877797 -0.049297735 0.080248535 0.0072107147
0002a0 48 03 28 3d 73 a8 b4 3d 48 69 91 ba bb 40 2b 3d
       0.041018754 0.08821192 -0.0011093998 0.04180978
0002b0 8f 4a 5c bd ea ef a5 bd 52 13 23 bc f9 62 3b 3d
       -0.053782042 -0.081024006 -0.009953337 0.045748685
0002c0 2f 8b 9b 3d 04 25 2a 3d a8 bf 16 3d 86 40 0f bd
       0.075949065 0.041539207 0.03680387 -0.034973644
0002d0 b1 1d ad 3d f4 54 24 3d c9 ca f0 bc bc e0 81 3c
       0.08452929 0.04012008 -0.02939357 0.015854232
0002e0 a2 6c 52 bc 65 c5 63 3d 0f 25 06 3d c2 4b 22 3d
       -0.012843283 0.055608172 0.032750186 0.03962303
0002f0 80 66 2e 3c d9 38 b3 bd 5f 62 96 bd 60 e2 39 3d
       0.010644555 -0.08751077 -0.073429815 0.045381904
000300 09 7b 09 3d ac e3 12 3d 82 66 11 bd d5 a7 10 3d
       0.0335646 0.035861656 -0.03549815 0.035316307
000310 ca 38 39 bd f4 7c 43 3b 9b 26 f8 bc 2a ff ad 3d
       -0.045220174 0.0029829117 -0.030291846 0.08495934
000320 ae 57 46 3d 97 40 39 bc 95 a6 02 3d 5d b4 14 bd
       0.04842346 -0.011306903 0.031897146 -0.03630482
000330 e6 09 d7 3c bf 30 d2 3c 28 f8 a9 bd c1 47 08 bd
       0.026249837 0.02565801 -0.08299285 -0.033271555
000340 13 e3 77 3c 2f 5a b1 bd c0 80 2c 3d e1 c0 5c bd
       0.015129822 -0.08659779 0.042114973 -0.05389488
000350 36 c4 d0 3c 08 9e 71 bd 5c de 2d bd 0f d6 9f bc
       0.025484186 -0.0589886 -0.042448387 -0.01951125
000360 25 12 d2 3c 1d 75 76 3d 5d 40 60 3d 9b c2 a3 bd
       0.025643418 0.06017028 0.05474888 -0.079961024
000370 dd c0 a8 bc 87 27 be bb 32 1e 35 bd be 1e 71 3d
       -0.020599777 -0.005803052 -0.04421825 0.05886721
000380 32 23 91 bd 7d 2c 1a 3d eb b6 d3 3c 39 5d 0a bd
       -0.07086791 0.037640084 0.025844058 -0.03378031
000390 b4 92 82 bc eb 5b 4d bd 5e 40 fd bc f7 2b bb bc
       -0.015939094 -0.050136488 -0.030914482 -0.022848113
0003a0 87 58 27 3d 93 c7 0e bd 65 9b 7f bc 60 74 ac bd
       0.04085591 -0.034858298 -0.015601014 -0.08420634
0003b0 da fe 3c bc 48 78 3c bc e4 57 a0 bd bf 76 b0 bd
       -0.011535371 -0.011503287 -0.07829264 -0.08616399
0003c0 1d 05 01 3d 26 ec 87 3c 59 35 91 bd c0 77 4b bd
       0.031499017 0.016592097 -0.070902534 -0.04967475
0003d0 aa 46 1c bd ca 7d 3b bd 45 a7 64 bc 61 36 b1 bc
       -0.038153328 -0.04577426 -0.013955896 -0.021632375
0003e0 d5 f5 41 bd be 98 8d bd d5 12 8a 3c 08 c2 16 3d
       -0.047353584 -0.06913899 0.016854683 0.036806136
0003f0 34 a7 0a bd 60 bc b1 bc 1e 6c 77 bd 3c 5a 95 bc
       -0.033850864 -0.02169627 -0.060405843 -0.018231504

net.4.bias f4 [64]
000000 69 76 1c bd 76 5c a9 bd 7f 65 cd bd 82 80 e9 3c
       -0.038198862 -0.08269589 -0.100291245 0.02850366
000010 8e 54 40 3d 5b f0 0f 3d f8 7a b7 bd 46 a6 29 3e
       0.046955638 0.03514133 -0.08959001 0.16567335
000020 d0 09 bc 3e ed 0c 84 bd 17 0c 71 3e 04 6e 5a bd
       0.36726236 -0.06447778 0.23539768 -0.053327575
000030 96 c2 98 3d c4 a7 c7 3d e0 83 68 3e 72 78 43 be
       0.07458989 0.09748796 0.22706556 -0.19088915
000040 c4 2e 8e bd df c2 d2 3d 0e a1 27 3e b2 05 16 3e
       -0.069425136 0.10291075 0.16370031 0.1465061
000050 54 8d f9 bd aa d4 5a bc 9a 06 be bc 9c f1 69 bd
       -0.12185159 -0.013356367 -0.023196507 -0.057115182
000060 7b 8e 92 3d f1 b4 46 3e c0 ba 0a 3b 01 50 8c 3d
       0.07156082 0.19404961 0.002116844 0.06851197
000070 1d f9 12 3e 23 12 10 3d a6 39 eb bd 02 be 93 3e
       0.14352842 0.035173547 -0.11485605 0.28855902
000080 44 1f 4a bd 21 1a 09 3e aa b4 1b 3a 59 c2 9f 3d
       -0.049346223 0.13388874 0.0005939702 0.07800741
000090 a0 43 1c 3e f1 23 19 3d c7 88 2b 3e a7 69 93 bd
       0.15260172 0.037387792 0.16751395 -0.07197886
0000a0 52 db 54 3c 5a e7 cb 3d 8a 74 67 be 41 3c d1 bc
       0.012991743 0.09956236 -0.2260305 -0.025541427
0000b0 8c ab 35 bd 2a aa 37 3d c4 2c d3 bd 11 56 c5 bd
       -0.044353053 0.044840015 -0.10311273 -0.096355565
0000c0 c9 d0 7e bd bd cf 43 bd 74 68 ea 3d 6e 73 84 3c
       -0.06221083 -0.047805537 0.11445704 0.016168322
0000d0 f2 81 84 3e 3e f7 a2 bd 99 6b 86 3d 18 bc 81 3d
       0.2588039 -0.07957314 0.065634914 0.06334704
0000e0 82 05 7b 3d 7d c0 49 3e e9 46 c7 bd e1 c8 1f be
       0.06128455 0.19702335 -0.09730322 -0.15603973
0000f0 7d 5c ef bb f6 81 b9 3d 64 83 72 3e 21 48 08 be
       -0.0073047266 0.09057991 0.23682934 -0.13308765

net.6.weight f4 [16, 64]
000000 49 74 d6 3c 2e e7 f7 3d 05 3f 82 bd 48 7a b2 be
       0.026178496 0.12104641 -0.06359676 -0.34858918
000010 8b 91 4f be 05 e5 4e 3e 3e f0 72 bc d5 dd 5c bd
       -0.20270364 0.20204552 -0.014827786 -0.053922493
000020 ad c9 e9 3d f6 b5 cc bb 3e 3a 7a 3d 40 f6 a2 bd
       0.1141542 -0.0062472774 0.0610907 -0.07957125
000030 f9 5e f8 bb e0 55 d1 3d d4 72 cf 3d fd 33 94 bd
       -0.007579681 0.102214575 0.101293236 -0.072364785
000040 36 02 54 bc e7 5a 52 3e dd 9e 0e bd 81 06 84 be
       -0.01293998 0.20542489 -0.034819473 -0.25786212
000050 8d 5c 06 3e 11 dc b0 be 6a a2 13 3e da a4 29 be
       0.13121243 -0.34542897 0.14417425 -0.16566792
000060 b6 ac 97 be f4 aa fd ba 56 53 9a be 58 36 c3 bb
       -0.29623955 -0.0019353316 -0.30141705 -0.005957406
000070 31 47 47 3e ff 80 11 bc 7b 6d c1 bd 1e 92 a7 be
       0.19460751 -0.008880853 -0.0944471 -0.32728666
000080 46 04 c8 3d 81 e0 80 3d 2b 7e 3f 3e 05 09 3f bd
       0.0976644 0.06292821 0.18700473 -0.04663946
000090 66 c9 0c bf ec 79 77 bd 1d 0e 9a be 62 81 92 3d
       -0.5499481 -0.060419008 -0.30088893 0.07153584
0000a0 82 7c e7 bc 79 eb 89 be e6 7b e1 39 c6 f8 cb bd
       -0.028257612 -0.26937464 0.00043007656 -0.09959559
0000b0 0c 8c f0 3d 12 a9 47 3e 6d e4 16 be 94 73 39 3c
       0.11745462 0.19498089 -0.14735575 0.01131906
0000c0 c7 d3 ad bc a0 01 b7 3c 0b e7 4a 3e 89 17 ec be
       -0.021219147 0.022339642 0.19814698 -0.46111706
0000d0 fb f6 30 bd ce 14 e1 3d f9 9e b9 bd f8 f4 e6 be
       -0.04320429 0.10990296 -0.09063525 -0.4510877
0000e0 ed 42 4c be 1c d6 b1 be 10 3e c7 be b1 de 59 3e
       -0.19947405 -0.34733665 -0.38914537 0.21276356
0000f0 2b fc 0c 3e 46 54 be bc 65 46 ec 3d c0 cb b6 3d
       0.1376807 -0.023233544 0.11536864 0.08925581
000100 3c c8 8f bd 90 7d 10 bc 91 aa bc bd a1 ca ad be
       -0.070206136 -0.008818999 -0.092122205 -0.33943656
000110 4d 4f 17 3c b3 ad 30 be 83 2d c7 bd 8e 15 fe be
       0.009235215 -0.17253761 -0.097254775 -0.4962582
000120 e7 86 1f 3e de 72 fe bd 63 82 05 3e ba d7 c2 3d
       0.15578805 -0.12424253 0.1303802 0.09513803
000130 46 74 f6 3d 7d 6c 8c be a4 21 12 3e 3f 49 5b be
       0.12033896 -0.2742652 0.14270645 -0.2141466
000140 85 66 57 bb c2 12 8d be bf aa 48 be 3e 76 cf bd
       -0.0032867503 -0.27553374 -0.19596384 -0.10129975
000150 14 7e e1 3d 74 dc e6 3d 27 4e f6 3d f6 ee 2b ba
       0.110103756 0.11272517 0.12026625 -0.000655874
000160 d9 4e 5a 3e 61 03 c2 be 9d 95 06 be 79 06 ad 3c
       0.2131914 -0.37893203 -0.1314301 0.02112125
000170 c1 00 87 bc b6 c1 a0 be 53 b3 88 bd 74 62 95 3d
       -0.016479852 -0.3139779 -0.066748284 0.07294169
000180 08 49 b0 bd d2 76 ff bd a3 43 4d 3d 7f 32 24 bf
       -0.086076796 -0.12473835 0.05011333 -0.6413955
000190 53 0f 28 3e 60 1f 32 3c ab ea 4b 3e 38 f4 a9 3c
       0.16412096 0.010871738 0.19913737 0.020746335
0001a0 1b 51 a9 be 4c 4d b0 bc 22 cb c6 bd c0 74 fc bc
       -0.3306969 -0.021521233 -0.09706713 -0.03081739
0001b0 a2 3f 3f bd 7e 5c ec bd 9e c6 06 bf 1a 74 bb bd
       -0.046691544 -0.11541079 -0.52646816 -0.09153004
0001c0 8e 18 30 3c 80 90 04 3d f8 e2 95 be 1d 65 e2 3e
       0.010748042 0.03236437 -0.29274726 0.44217768
0001d0 c0 b8 67 3e 44 b4 d3 3d 17 d5 ca bc 7e 60 18 bf
       0.2262907 0.10337117 -0.024759812 -0.59522235
0001e0 e5 21 1a bd 02 0a fb 3b 75 d6 46 bc 72 fe 17 3e
       -0.03762998 0.007661105 -0.0121360915 0.14843157
0001f0 07 5d 94 be 1e d0 1e 3f 37 63 ef 3b 07 ad 93 be
       -0.28977224 0.6203631 0.0073055285 -0.28842947
000200 ab 99 1e 3d 4a 64 dd bd e5 d3 55 bd 84 cd 02 be
       0.038720768 -0.10810144 -0.05220403 -0.1277371
000210 9b 8d dc 3c d8 bd 36 be af 65 ed bc d8 f5 1b 3e
       0.026922991 -0.17845857 -0.02897915 0.152305
000220 54 5f 78 bd 82 ef a0 3d c5 a7 76 be 54 17 d6 bd
       -0.060637787 0.078581825 -0.24087436 -0.10453668
000230 dd 33 75 3d d8 e3 80 3e 77 d1 93 bc 4e 5c 68 3d
       0.059863914 0.2517383 -0.018044217 0.056728654
000240 7c aa 10 bd bf 54 65 bd 6b 4d 7e 3e 96 51 10 bf
       -0.035318837 -0.055989023 0.2483422 -0.5637449
000250 92 dd 13 3c 73 22 67 bd 03 d3 da 3c a3 1b 7a bc
       0.009024994 -0.056429338 0.026711946 -0.015265378
000260 02 7b 5a bf dd e1 ee 3d c3 3a 18 be 0d c1 df 3c
       -0.85343945 0.11664174 -0.14866166 0.027313733
000270 aa 3b b4 be 5a 57 a3 be 26 57 5c bd ea a3 9b 3d
       -0.3520177 -0.3190258 -0.05379405 0.075996235
000280 68 34 02 be f4 46 22 bc 47 be 82 bd 99 22 14 bd
       -0.12715304 -0.009904612 -0.06383949 -0.036165807
000290 bc fb 4e 3e b5 0b 0c 3d 68 a6 26 3d 3c e3 83 3d
       0.20213217 0.034190852 0.04068604 0.06439826
0002a0 c0 8c e5 be 2f 75 9b be 99 10 f2 be 0e f1 70 3e
       -0.44833946 -0.3036284 -0.47278288 0.23529455
0002b0 29 1f e4 3d 8f 42 17 be 27 5a 61 bd a6 ee 20 3e
       0.11138756 -0.14771484 -0.055017617 0.15716037
0002c0 54 44 6e bd 00 4c 0a 3a 23 07 01 be 59 fc 3a be
       -0.05817063 0.0005275607 -0.12600379 -0.18260325
0002d0 3e 4c 17 bf a8 4e 92 bd 55 94 06 3e b4 ee e9 be
       -0.5910071 -0.07143909 0.13142522 -0.4568993
0002e0 d1 c3 e4 3d f0 d1 4a 3e 72 61 54 3e 0a cc 00 3e
       0.111701615 0.19806647 0.20740297 0.12577835
0002f0 da c6 d6 be 15 bd f1 3d e6 4c d3 bd 94 0b 0f be
       -0.41948587 0.11803643 -0.103174016 -0.1396926
000300 3b fe e7 bb fc 78 82 3d 9c 6f ad 3d 71 f5 e3 bd
       -0.007079867 0.06370732 0.084685534 -0.111307986
000310 5f ee 9f 3d fd 64 69 3e 94 76 36 bd 69 2d 58 3e
       0.078091376 0.2279243 -0.04454668 0.21111073
000320 d9 19 80 3d 79 fc 29 3d 9a b9 a1 bc b2 7f f5 bd
       0.0625493 0.041500542 -0.019741822 -0.119872466
000330 2b 3f 69 be 47 76 0a bd 12 f7 e1 3d 36 a2 90 bd
       -0.22778003 -0.033804204 0.11033453 -0.07062189
000340 0d 74 89 bc a1 1d f5 3d 5d 1c 35 bd 00 86 d9 bd
       -0.01677897 0.11968542 -0.044216502 -0.106212616
000350 56 e5 4d be b7 b7 88 3d ef 9c 11 bd 44 65 f5 3d
       -0.20107016 0.06675666 -0.035550054 0.119822055
000360 a9 61 49 3e 9f 39 98 bd ea 59 fc be e7 12 95 bd
       0.1966616 -0.07432865 -0.4928735 -0.07278996
000370 f1 7e 1d 3e e8 c5 d0 be 7d 00 8e be 56 06 dc 3c
       0.15380456 -0.4077599 -0.27734748 0.02685849
000380 08 d2 59 3e d6 7c 62 3d 8d 6d b9 be 5e 34 24 be
       0.21271527 0.055294834 -0.36216393 -0.16035601
000390 9a c7 1f 3e bb 95 79 bd 24 78 ad be f8 4c 0a 3d
       0.15603486 -0.06093381 -0.33880723 0.03376481
0003a0 c6 c2 25 bd ec 32 eb 3b 31 e9 cf be e9 bf 7d bc
       -0.040468954 0.007177701 -0.40607598 -0.0154876495
0003b0 55 04 3c 3d 98 f1 58 3e 51 38 f1 3d f3 35 37 3e
       0.04590257 0.2118591 0.117783196 0.17891674
0003c0 3c 94 60 bd a8 a8 ae bc bc b3 3a 3e 90 c0 6b bf
       -0.054828867 -0.021320656 0.18232626 -0.920907
0003d0 fc 75 da bd 40 62 7f 3c ee ee 96 3e d8 ca d3 bc
       -0.10667035 0.0155873895 0.29479164 -0.02585356
0003e0 c7 85 98 be 3b 27 00 3e 46 36 3c 3d dd 2d 1a be
       -0.29789564 0.12514965 0.045950197 -0.15056558
0003f0 92 a7 d4 be a2 28 04 3e 2a b0 8c 3d ab 95 e4 3d
       -0.41534096 0.12906125 0.06869538 0.111613594

net.6.bias f4 [16]
000000 93 47 87 bd 75 0d d1 3d ae 88 c3 3d ee 00 66 3e
       -0.066054486 0.10207645 0.09547554 0.22461292
000010 c2 76 6a 3c d7 43 94 3d 5d a3 1e 3e 8d 17 a0 be
       0.014310541 0.07239502 0.15492006 -0.31267968
000020 77 a0 1c 3d 90 bf 2c 3e 9c e4 f3 bd d4 8a 78 bd
       0.03823897 0.1686995 -0.11908838 -0.06067927
000030 14 63 39 bd d3 ba 04 3e 06 38 c0 3d f9 13 a6 3d
       -0.045260504 0.12961893 0.093856856 0.08109278
