ML/model.pt (torch, 69309 bytes, 6 tensors)

net.0.weight f4 [128, 63]
000000 2a 2a 7d 3d 7a 8c dd bc 4c a5 7c 3d e6 9f 04 be
       0.06180779 -0.027044524 0.061681077 -0.12951621
000010 96 ab 0f 3e e5 57 b9 3c e1 75 17 bc c2 72 c2 3d
       0.14030299 0.02262492 -0.009244413 0.094945446
000020 3a 6e 3b 3d bf 9a f3 bd 20 17 5f 3d 90 95 10 3d
       0.045759417 -0.1189475 0.054465413 0.035298884
000030 3a a9 5e 3d 77 7f a8 bd c7 58 b7 3d db cd 90 3d
       0.054360606 -0.08227437 0.0895248 0.07070514
000040 67 e0 6c 3d a3 f2 da bb e4 35 ca bd 23 c5 eb bd
       0.057831194 -0.0066817566 -0.0987356 -0.1151221
000050 af fe 9a 3d 57 cb 9a 3d 5e 66 81 3c 60 00 b4 bc
       0.07568108 0.07558315 0.015795883 -0.021972835
000060 e8 8c 95 bd 86 13 97 bd 9f 66 b4 bd 8c 1a 8f bd
       -0.07302266 -0.07376771 -0.08808636 -0.06987485
000070 e3 72 b5 3d a0 62 e2 bc 29 46 d5 3c 5d b0 33 3d
       0.088598035 -0.027634919 0.026034432 0.043869365
000080 58 49 ad 3c dc 0c 90 bb 31 8f 3a bd 4b f4 66 bd
       0.021153137 -0.004396064 -0.045546714 -0.05638532
000090 70 24 0b 3e ae 6a ba bd 06 1d 3f 3d 75 66 04 be
       0.13588119 -0.09102379 0.04665854 -0.1292971
0000a0 4f 3f 25 bd 5f 1e 01 3e d2 e9 9f 3b 96 54 5e 3d
       -0.04034358 0.12609242 0.0048801685 0.054279886
0000b0 ea 58 7e bc 46 5e 70 3d 6d db ae 3d 4d 4b f5 bb
       -0.015524128 0.058683656 0.08537946 -0.007485783
0000c0 f8 91 eb bc 47 ff 8f 3d 87 82 b1 3d f7 cc 9f bd
       -0.028756127 0.07031112 0.08667474 -0.07802766
0000d0 36 65 da 3c f5 54 b1 3d a8 3f c8 bd e4 bd 2b be
       0.02665959 0.086587824 -0.097777665 -0.16771656
0000e0 f9 5f 8f bc a9 b7 eb ba 54 89 94 3d 55 cf 09 be
       -0.017501818 -0.0017983812 0.07252756 -0.13457997
0000f0 3b fa f0 bd 34 a6 8e 3d 65 37 cb bd c0 b6 02 be
       -0.11766478 0.069652945 -0.09922675 -0.12765026
000100 28 70 cf bd 10 da 25 3d 61 d9 32 3d 34 07 c9 3d
       -0.10128814 0.040491164 0.04366434 0.09815827
000110 76 35 84 3c be 88 8d bd c7 4e d0 3d 28 7f 94 3d
       0.016138773 -0.06910847 0.101712756 0.07250816
000120 61 94 aa bc 0d ab 00 3e 69 34 d8 bd d0 e8 4e bc
       -0.020822706 0.1256525 -0.105568714 -0.012628749
000130 42 ee 07 3e 99 f7 81 bd 8a cf e9 bc de c7 b7 3c
       0.13274482 -0.06346054 -0.028541345 0.022434171
000140 97 97 0a 3d e9 e3 dd bc 92 91 9a ba 14 f5 83 3d
       0.033835974 -0.027086215 -0.0011792651 0.06443229
000150 1d d4 3b bd 88 51 f8 bc 73 4f dc 3d 28 d7 78 bc
       -0.045856584 -0.030312315 0.10757341 -0.015188016
000160 33 44 a1 3d a2 47 0f 3d 8c 20 a6 bd a8 9c da bd
       0.07874336 0.034980424 -0.081116766 -0.10674411
000170 0f 1c 93 bd c2 3d e1 3d 95 3d ff 3d a5 82 85 3d
       -0.07183086 0.109981075 0.12462918 0.06519059
000180 b9 55 5d 3d 88 14 01 be f9 a9 27 bd 79 3b 61 3d
       0.05403683 -0.12605488 -0.040933583 0.05498836
000190 5d ff d9 3d ed 93 15 3e ba 03 03 3e 4b d3 6c bd
       0.1064441 0.1460721 0.1279439 -0.057818692
0001a0 05 3f 11 be 76 0b 02 3d 6a 50 13 bd a7 4c 04 3e
       -0.14184196 0.03174921 -0.03596536 0.12919866
0001b0 56 d3 18 be 88 a8 9c bd 77 f0 42 bd 20 ef b1 3c
       -0.14924368 -0.07649332 -0.047592606 0.021720469
0001c0 b5 39 2f 3d a4 ed 09 3e 83 2b ef 3d cc f0 51 bd
       0.042779643 0.13469559 0.11678221 -0.051255032
0001d0 d8 e1 78 bd 3f f0 fc bd 48 3a e2 3d eb bd a2 3d
       -0.060762256 -0.12350511 0.110462725 0.0794638
0001e0 59 4b 33 bd 45 d3 ad bd 24 f5 9f 3d d7 e9 24 be
       -0.04377303 -0.08487562 0.07810429 -0.16104828
0001f0 8d 21 46 bd 5f 38 94 bc c2 ec 8f bd d0 1a 03 be
       -0.04837184 -0.018093286 -0.0702758 -0.12803197
000200 29 60 6f bd 49 31 86 bd 03 52 04 3e d8 d3 a6 bc
       -0.058441315 -0.06552369 0.1292191 -0.020364687
000210 0a a6 aa 3c b1 49 9d 3c 5a 53 22 3d bc a1 a3 bd
       0.020831127 0.019200178 0.03963027 -0.07989833
000220 32 e6 0c 3e cd bc f9 bd a3 32 b0 3c ce a1 23 3e
       0.13759688 -0.12194214 0.02150852 0.15979692
000230 83 a9 31 3d cf 13 7b bd 2e d9 07 3d 54 25 b0 3d
       0.04337455 -0.061298188 0.033166103 0.0860087
000240 3b e6 ad 3d c0 a1 f2 bd 84 f6 dc 3d 35 92 0e be
       0.084911786 -0.118472576 0.107892066 -0.13922961
000250 76 a8 aa bd d9 7c 93 3d bd d4 86 3d 01 77 e2 3d
       -0.083329126 0.07201547 0.06583545 0.110578544
000260 88 bc 3a bc a3 79 9b 3d e4 34 20 bd f1 0f bf bd
       -0.011397488 0.0759156 -0.03911294 -0.093292125
000270 3d d8 bf 3c 1e 3b 8a 3d 06 d2 12 3e 79 90 f0 bd
       0.02341854 0.06749557 0.1433793 -0.11746306
000280 d4 b2 26 bd 04 5b 6f 3b dd f1 b9 3d aa 37 a9 3c
       -0.040697888 0.0036522755 0.09079335 0.020656426
000290 f6 28 c4 bd de 11 0c 3e 05 af 70 3c db 88 25 be
       -0.09578125 0.13678691 0.014690165 -0.16165487
0002a0 1b bb aa bd 8b 21 c3 3c 88 84 0c be 8e de 2d 3d
       -0.08336469 0.023819705 -0.13722432 0.042448573
0002b0 64 e2 d6 bc fe 93 31 3d b6 3c d1 bc 45 9b 00 bd
       -0.026230998 0.043354027 -0.025541645 -0.031398077
0002c0 4b 56 2e bd d2 10 2f bd f3 a3 15 bd 3b 88 ec 3d
       -0.042562764 -0.04274065 -0.036533307 0.115494214
0002d0 9c 39 e0 3c 8e f1 ba bd e5 95 bf 3c d6 0c 2c 3d
       0.02737122 -0.09128104 0.023386905 0.04200443
0002e0 a3 07 95 bc 7e 9d a5 bd 43 2f 6a 3d dd 09 26 3d
       -0.018192118 -0.0808668 0.05717398 0.04053675
0002f0 98 56 d8 bd bf 86 22 bd 55 98 21 bd 84 09 98 bc
       -0.105633914 -0.039679285 -0.039451916 -0.018559225
000300 0f 4b d3 bd e8 b5 f7 bd 3c d2 b0 3c d4 64 61 bb
       -0.10317051 -0.12095243 0.021584623 -0.0034392374
000310 32 2d 9f bd b2 30 c1 bd e0 43 0f 3e 59 32 12 3d
       -0.07772292 -0.09433116 0.13990736 0.035692547
000320 03 1c ed 3d 4f bc 20 3d 20 7d 19 3e 94 a5 66 3c
       0.115776084 0.039242085 0.14989138 0.014077563
000330 b6 e2 8c 3c 53 39 8b bd f2 f4 dc 3d ce 3c 08 3e
       0.017197948 -0.06798043 0.10788907 0.13304445
000340 f2 79 f2 bd a7 18 26 bc 1c fb 20 bd 1e 3f f2 3c
       -0.118396655 -0.0101377135 -0.039301977 0.029571112
000350 6f 88 94 bd 1b 11 3d bd d4 0d 8b 3b 76 07 a0 3c
       -0.07252585 -0.04615889 0.004243592 0.019534808
000360 7f 72 c4 3d 02 8a ab 3d 8d cb 07 3e 84 e8 ac bd
       0.09592151 0.08375932 0.13261242 -0.08442786
000370 82 d3 d4 bc f4 c3 23 3e d0 03 c3 bd 5b 28 a6 3d
       -0.025979761 0.15992719 -0.095222116 0.08113166
000380 83 f6 23 bd 07 3e d4 3d 2a 35 a2 3b 0b 2c ca 3d
       -0.040030014 0.10363393 0.0049501853 0.09871682
000390 a6 18 1e 3e 3a c3 60 bd 68 ee d6 bd 27 0d b0 bc
       0.1543909 -0.054873683 -0.10494691 -0.021490647
0003a0 34 6b 9b bc de 3a 60 3d ed a5 20 3d b3 28 9d 3c
       -0.018972017 0.05474364 0.03922074 0.019184446
0003b0 3f dd 24 3e 64 13 e4 3d 4d 1c ae 3d 95 e8 2e 3d
       0.16100024 0.11136511 0.08501492 0.042702276
0003c0 c4 d8 6d bd 1b 29 a6 bd fb 74 03 3d de 23 ea bd
       -0.058068052 -0.08113309 0.032093983 -0.114326224
0003d0 54 4e d8 3d 68 a8 cf 3d d8 c0 b9 bb ca 23 92 3c
       0.10561815 0.10139543 -0.0056687407 0.017839331
0003e0 5c 31 ed 3d 61 5d 4d 3d 58 0b 13 3d 46 40 9b bb
       0.1158168 0.05013788 0.03589949 -0.0047378866
0003f0 4c a0 eb bd 37 f4 ac 3d e8 f2 a9 3c 2b 2c c7 bd
       -0.115051836 0.08445018 0.02074571 -0.09725221

net.0.bias f4 [128]
000000 ec b3 a8 bd ed ca de 3c e5 f9 a5 3d 5a b2 88 3d
       -0.082374424 0.027196372 0.08104304 0.06674643
000010 77 1e 3f 3c 63 27 7c bd 0c c4 9c 3a 3c ff 88 bd
       0.011664978 -0.061561 0.0011960282 -0.06689307
000020 2a 44 12 3c 67 4c 07 3d fb ea d7 3c d0 ea d7 bd
       0.008927384 0.033031847 0.026357165 -0.10542834
000030 1b f0 66 3d a5 9c 2c 3d 5c a9 90 bd 81 f5 61 bb
       0.056381326 0.042141575 -0.07063553 -0.0034478607
000040 bc 12 a9 bd 01 94 5b 3d 33 dc 15 3d 6c 6f 05 bd
       -0.082555264 0.053607944 0.03658695 -0.032576963
000050 2e 7b fd bc de 72 5d bd c7 d6 e8 3d 3b b6 69 bd
       -0.030942526 -0.054064624 0.113690905 -0.057058554
000060 6c c6 9e 3d 39 8a b0 bd df 99 c7 3d c5 2c 02 bd
       0.0775269 -0.08620114 0.097461455 -0.031780977
000070 8c a5 65 3d c9 68 1e 3c 49 b8 b2 bd 6d e8 b0 bc
       0.05606608 0.009668537 -0.08726556 -0.021595204
000080 23 c7 68 bd 38 73 c4 bd 7d 58 e9 3d b5 fb f9 3d
       -0.056830537 -0.09592289 0.11393831 0.122062124
000090 67 26 f9 bc 32 d6 b0 3d 24 15 21 3d 52 20 a9 bc
       -0.03041382 0.086346045 0.039326802 -0.020645294
0000a0 ea ab c0 bd 33 79 0c bd 1c c7 c7 3d 93 6d 25 bd
       -0.0940779 -0.034295272 0.09754774 -0.0403877
0000b0 4d 41 bb 3d 7d 34 64 3d ce 23 f2 3d f9 4b a0 3d
       0.091433145 0.05571412 0.118232355 0.07826991
0000c0 4e 7e 92 3d 95 bf 3c bd bb 11 03 be 31 73 2f 3d
       0.07152997 -0.046081144 -0.12799732 0.042834464
0000d0 1c 86 89 bd dc 4d da 3d 53 08 ca bc 62 9a 00 bc
       -0.067150325 0.10659382 -0.024662172 -0.007849308
0000e0 c8 23 d1 3d 12 dd 62 bc 30 46 5b bd 6e 82 60 bd
       0.10211903 -0.013846653 -0.053533733 -0.054811887
0000f0 d3 c0 8a bd 58 51 ac bd 9d 8a 87 bd 89 d7 91 3c
       -0.067750596 -0.084139526 -0.06618235 0.01780297
000100 a2 9e de bc 2e 0f ee bc f0 46 a9 bd f4 55 ec bd
       -0.027175251 -0.029059973 -0.082654834 -0.11539832
000110 cd 43 39 3d 32 56 ba bc ad 62 c9 bd 1a 87 47 3d
       0.045230675 -0.02274618 -0.09833274 0.048712827
000120 f4 01 fa 3c 00 99 43 3a 68 05 d1 3d 97 28 dd 3b
       0.03051851 0.00074614584 0.10206109 0.0067492235
000130 30 fa d1 3d 78 41 d3 bc 7e 38 c4 3d f8 04 7d 3c
       0.102527976 -0.025788054 0.095810875 0.015443079
000140 a5 4b 05 3d ea 90 f4 3d fe 90 97 3d d1 29 6f 3d
       0.032542843 0.11941703 0.07400702 0.05838949
000150 9f ce 1a 3e b6 aa 02 3e 3d 00 c5 bd b8 4f 8a 3d
       0.15117882 0.12760434 -0.09619186 0.067534864
000160 65 ee e7 bd 9d b1 fb bd 68 d1 d8 bc 13 01 a9 3b
       -0.11324767 -0.122897364 -0.02646704 0.0051575988
000170 a7 f0 1a bc 9f 97 c2 bc 24 0a 04 3e e3 b3 d1 3d
       -0.00945679 -0.02375394 0.12894493 0.10239389
000180 29 40 95 3c 98 f8 65 3d 39 8e c3 3d 5d d8 9a 3d
       0.01821907 0.05614528 0.09548611 0.07560799
000190 d1 8c fd 3d 5e 18 a5 3d 10 af 3d bd 5f a6 73 bd
       0.12380374 0.08061288 -0.04630953 -0.059484836
0001a0 ce dd cf 3c 2c d1 e2 3d 41 4c 21 3e 14 61 f9 bd
       0.02537432 0.110750526 0.15751745 -0.12176719
0001b0 56 c1 b2 bd d5 93 ed 3d 40 b1 fe 3c d8 fd fd 3c
       -0.08728282 0.11600462 0.031090379 0.031004831
0001c0 a7 98 39 39 bb a1 5d bd 23 cd 66 bd 5e 29 90 3c
       0.00017699842 -0.054109316 -0.056347977 0.01759785
0001d0 af ed cc bd 80 0e 99 bd 96 b6 73 3d 04 74 f0 bd
       -0.10006272 -0.07473469 0.0595003 -0.11740878
0001e0 8f 63 8c 3d 81 63 17 3d 76 e8 d6 3d e5 bb 9c 3d
       0.06854927 0.03696013 0.10493557 0.076530255
0001f0 e0 d2 9a bd ed 6c 54 bd 03 09 96 3d f0 21 97 3d
       -0.075597525 -0.051861692 0.073259376 0.0737952

net.2.weight f4 [64, 128]
000000 3e 11 f3 3d fa 10 a1 bd 4a 77 14 bd 7f 45 92 bc
       0.11868523 -0.07864566 -0.036246575 -0.017855404
000010 0f 69 f2 3c cb 63 81 bd d1 e8 ad bd d0 7f 8b bc
       0.029591111 -0.06317862 -0.08491672 -0.01702872
000020 bc 02 97 3d 41 d3 57 3d d4 34 d3 bc 39 2e 28 3d
       0.073735684 0.0526917 -0.025782026 0.041059706
000030 36 b0 1e 3d b1 61 87 3d 52 f2 29 bd 5a 57 53 bd
       0.038742267 0.0661043 -0.04149086 -0.051596977
000040 10 5d 94 3c 6d e1 60 3d ba 40 91 bd 71 e2 e8 bc
       0.018110782 0.054902483 -0.07092424 -0.028428288
000050 a4 58 d3 3d 4f d4 aa bd 6f bc dc bc 1f 27 c1 bc
       0.10319641 -0.08341276 -0.02694532 -0.023578225
000060 69 31 b0 bd ce 9a 07 3e c0 44 9e 3c f6 6b a5 bb
       -0.08603174 0.13242647 0.019319892 -0.0050482703
000070 24 d4 9b bc b1 29 05 3d fc cd bd 3d 09 9e 88 bc
       -0.019022055 0.032510463 0.09267804 -0.01667692
000080 8a 1c 04 3c fc b9 9c bd d1 a9 09 bd 25 17 26 3d
       0.008063445 -0.07652661 -0.033609215 0.040549416
000090 27 f9 a8 3d 56 df 76 bd d4 73 eb bc 75 0d a1 3d
       0.08250647 -0.060271583 -0.028741755 0.07863895
0000a0 b9 fd 7f bd 40 98 55 3d a3 bc d1 3d 25 4d b5 3c
       -0.06249783 0.05214715 0.10241058 0.022131512
0000b0 51 49 5e bc e6 9c 9b bd 11 b3 a6 bc 87 33 3c bd
       -0.013567285 -0.075982854 -0.020349057 -0.045947578
0000c0 c0 58 d2 3d d5 76 26 bc 9e 89 5f 3c eb 86 8e bd
       0.10270834 -0.010160168 0.01364365 -0.06959327
0000d0 e8 64 36 bb e7 f2 29 bd df 62 f4 bc a7 0a 02 3d
       -0.002783114 -0.041491415 -0.029832302 0.03174844
0000e0 8b 4a 6e 3d bb 51 9c bc 88 71 8b bc 8f d5 f0 3c
       0.05817656 -0.01908194 -0.01702191 0.029398708
0000f0 75 b0 a2 3c 56 c7 b9 3d a7 3e 00 bd 77 f7 02 3d
       0.019859532 0.090712234 -0.03130975 0.031974282
000100 bd c1 06 3d fe 6b e6 bc 35 3a f4 3d 73 f8 45 bd
       0.032899607 -0.028127667 0.119251646 -0.048332643
000110 41 af 35 3c c1 66 82 3d 96 0e 82 3d 46 b6 17 3e
       0.011089147 0.06367255 0.06350438 0.14815626
000120 5e 97 01 be 7d 0a a6 3d ee 11 c0 bd 93 8c e6 3d
       -0.12655398 0.08107469 -0.0937842 0.11257281
000130 0f 0e a5 bc a6 98 a4 3d c3 9a 43 3d 16 4d 4c bd
       -0.020148305 0.08036928 0.047755014 -0.049878202
000140 cb f8 4e bd bc 7b 0f 3e dc d8 2f bd 74 5d fd bd
       -0.050530236 0.14012045 -0.042931423 -0.123713404
000150 d2 73 e6 bd 04 0a aa 3c 18 86 0d be 49 75 5b bd
       -0.1125256 0.020756729 -0.13820684 -0.05357865
000160 46 5a b2 bd e7 90 ed 3d f2 44 06 3c a0 f2 72 bc
       -0.087086245 0.115999036 0.008195149 -0.014828354
000170 39 85 bb bd 36 df b2 bd 4f f5 ef 3d d5 2d a0 3d
       -0.091562696 -0.0873398 0.11716711 0.07821242
000180 a0 dd b5 bc 23 e4 02 be 39 c6 9c bc 56 8a d7 bb
       -0.022200406 -0.1278234 -0.019137489 -0.00657777
000190 fd c5 ae 3d 7a 21 9a 3d 2f 47 76 3d 6a 8d 08 3e
       0.08533857 0.075259164 0.06012648 0.13335195
0001a0 31 5b 8d 3d c4 85 2c bd 82 1e d5 3d 2f e4 c0 3d
       0.06902159 -0.042119756 0.104062095 0.094185226
0001b0 37 e9 d3 3d 5c 06 36 3c b0 75 82 bd d0 f6 09 3d
       0.103472166 0.011109915 -0.06370103 0.033682644
0001c0 9b 72 ee 3c e3 cc 40 3d 76 7f b6 3d 90 29 40 bc
       0.029107383 0.047070395 0.0891103 -0.011728659
0001d0 51 c5 70 bd 81 8f d5 bd ed 9a c2 bc 4b 0c bc bd
       -0.058781926 -0.10427762 -0.023755515 -0.09182032
0001e0 62 cd 5f 3d 09 32 21 bc 6a 81 cf 3d 3f 29 ae 3d
       0.054639228 -0.0098385895 0.10132106 0.08503961
0001f0 c9 3b 61 3b 8a 53 32 bd 8b 55 02 3d 95 68 fc 3d
       0.003436791 -0.0435367 0.03181986 0.12324635
000200 54 60 7c bc 50 3c 8c 3c ac 9d 34 3d ac d4 8f bc
       -0.015403826 0.017118603 0.04409568 -0.017557465
000210 46 59 41 bd b3 62 e2 bc 54 1f 32 3d 2a 6e 70 bd
       -0.04720428 -0.027634954 0.043486908 -0.05869881
000220 cb ca 2a 3b 0b f9 5f bd a4 90 98 bd b0 db a0 bd
       0.0026060815 -0.054680865 -0.07449463 -0.07854402
000230 c2 a9 af ba a5 1d 58 3d 9b 62 6e bb 95 14 e6 3c
       -0.0013402032 0.052762646 -0.0036374691 0.028085986
000240 14 fb 9b bc 53 58 f0 3c f0 7e 34 bd 99 4d 96 bd
       -0.019040622 0.029338991 -0.04406637 -0.07339019
000250 fb f0 00 bc 0c 2b a6 3c 31 36 6a bc cc 44 9e bd
       -0.007869954 0.020284198 -0.014295147 -0.07727966
000260 8a e3 fd bc ba bf 9d 3d ee 08 76 3d 5b 35 4f bd
       -0.030992288 0.077025846 0.06006711 -0.050587993
000270 93 77 8c 3c fc be 03 bd 74 4e 80 bd 9c 72 38 bd
       0.017146861 -0.03216456 -0.06264964 -0.045031175
000280 79 27 45 bd 20 7b 3d bd 74 93 9c 3c 9d 29 88 bd
       -0.048133347 -0.04626 0.01911328 -0.06648562
000290 1d 9c 4c bd 06 e7 6e bb 61 4b 1c bd 27 3f 7e 3c
       -0.04995357 -0.0036453619 -0.038157824 0.015517986
0002a0 b7 f4 a1 3d 9f 59 ef bc 93 1c 0c bc da 71 f7 3c
       0.07908004 -0.02921754 -0.0085517345 0.030205656
0002b0 a6 0f 56 3d a1 f6 99 bd 58 60 a9 bc a8 6b 94 3d
       0.052261017 -0.07517744 -0.020675823 0.07247096
0002c0 95 f4 87 bd b1 86 54 bd ca 89 46 bd 76 6f ec 3c
       -0.06638447 -0.051886264 -0.04847125 0.028861742
0002d0 c7 b2 4f 3b 2d e8 aa bc 33 65 4c 3b 65 a4 71 bd
       0.0031692253 -0.020862663 0.003118825 -0.05899467
0002e0 b1 f4 80 3d a9 63 5a 3c ec b0 45 bd 5d 20 4b 3d
       0.06296671 0.013329425 -0.04826443 0.04959141
0002f0 a7 ff c1 3c 52 fe b9 bd cc 5b 4c bd ac 38 aa 3d
       0.023681475 -0.09081711 -0.04989223 0.083115906
000300 0b 69 c4 bd 9a 20 bd 3c 4c 6b ba bd 3e aa 15 3d
       -0.09590348 0.023086835 -0.091024965 0.03653931
000310 f7 7c 95 bd 74 e0 a0 bd b7 9d 34 3d 34 f2 62 3d
       -0.07299226 -0.07855311 0.04409572 0.055406764
000320 b2 da 28 3d 1d 01 59 3d 95 79 cc bb 1e 11 40 3d
       0.04122419 0.052979577 -0.0062400796 0.046891324
000330 ae 28 6e bd fd 19 12 3d 08 7d da bb 73 c9 97 bc
       -0.058144264 0.035669316 -0.006667737 -0.018528676
000340 c7 db 05 3d 3c 49 5c bd 10 84 97 3d 69 95 e3 3c
       0.0326803 -0.05378078 0.07398236 0.027781205
000350 4e 3f 9c bd 34 5c b9 bc 69 87 8b bd 44 0e ad bd
       -0.07629262 -0.022626974 -0.06812937 -0.084499866
000360 f0 29 88 bd 28 eb ab 3d 50 42 db 3b 9d 92 19 3d
       -0.06648624 0.08394462 0.0066912547 0.037493337
000370 db a1 24 3d 0c bb 51 bd 92 65 89 3d f4 22 6a bd
       0.04019342 -0.051203772 0.06708826 -0.05716224
000380 31 85 8b 3d 26 4e 9b ba 74 bf bd bd 2b da b7 ba
       0.068125136 -0.0011848852 -0.092650324 -0.0014026811
000390 b1 5a f6 3c c3 69 55 3d 03 42 61 bd d7 54 fd 3c
       0.030072542 0.052102815 -0.054994594 0.030924244
0003a0 63 8e 48 3d 1a f2 8a bd 58 a6 9f bd 30 df 82 3c
       0.048963916 -0.067844585 -0.077953994 0.015975565
0003b0 de e6 3c 3d e0 f7 6a 3d ba b4 4d bd a9 55 98 bd
       0.04611861 0.0573653 -0.050221182 -0.074382134
0003c0 7d ce 67 bd 68 61 4b 3c dc a0 89 3b 40 ea 81 bd
       -0.056593407 0.01241336 0.004200084 -0.06343508
0003d0 af cf 41 bc 7f a3 94 3b 4e 0a 92 bd 70 72 5e 3d
       -0.011829301 0.004536092 -0.07130872 0.054308355
0003e0 5d e5 87 3d e9 73 76 bd 00 fd 5b 3d ef 71 b2 3c
       0.066355444 -0.060169134 0.053708076 0.021782843
0003f0 26 a2 5b 3d d3 f8 9b 3d 19 9a a7 bd fc 78 d9 3c
       0.053621434 0.07615819 -0.08183689 0.026546948

net.2.bias f4 [64]
000000 2c 18 36 bc 73 1a 02 bd cd 9e e1 bc 22 3d aa 3d
       -0.011114161 -0.031763505 -0.027541542 0.083124414
000010 fb cd e9 3c 90 71 97 3d 74 96 6e 3c fe c1 08 bd
       0.028540602 0.07394707 0.014562238 -0.03338813
000020 34 27 3b 3c 3e f6 99 3d f7 41 87 3d 94 dd 8e ba
       0.011422921 0.0751767 0.06604379 -0.0010899776
000030 89 d6 2f bd 03 0d b4 bb 42 09 47 3c 4a 78 4f 3d
       -0.042929206 -0.005494715 0.012148203 0.050651826
000040 99 74 13 bd 06 c6 62 3d 35 a2 9e 3c ff 36 a5 bd
       -0.035999868 0.05536463 0.019364456 -0.0806713
000050 19 42 7e bd 14 f4 34 bd 31 50 73 bd d0 8e 02 3d
       -0.062074754 -0.044178084 -0.05940265 0.031874478
000060 8f 87 b5 bc cc f2 54 3d 76 05 a4 bd 41 e9 93 3d
       -0.022159366 0.05198936 -0.08008854 0.07222224
000070 38 04 af 3c fa 22 a4 3d ff 64 25 3d 2e 05 ea bc
       0.021364316 0.08014484 0.04037952 -0.028566923
000080 ff 03 92 3d fb 86 9c 3c 00 61 69 bd 70 2a 66 3d
       0.071296684 0.019107332 -0.056977272 0.056192815
000090 ec d3 64 bd 1e 0b c8 bc 78 55 be 3d 02 a2 5a bd
       -0.055866167 -0.024419364 0.092936456 -0.05337716
0000a0 39 e3 ac 3c 7d f6 a2 ba b4 8e e6 3c 9e 9f fa 3c
       0.021104442 -0.0012433078 0.028144218 0.03059369
0000b0 2d aa d3 3d cd bb b1 3c f2 05 96 3d 1f f7 cf 3b
       0.10335193 0.021695996 0.07325353 0.006346598
0000c0 36 d2 bc bc a3 5a 98 bd 51 9a db bc 51 dc 40 bd
       -0.023049455 -0.074391626 -0.026806982 -0.04708511
0000d0 32 c8 4b 3d d6 07 a8 3d b7 8e e8 bb 3c a5 26 bd
       0.049751468 0.082046196 -0.007097091 -0.040684924
0000e0 f6 8c 87 bc 56 9d c2 3c 5e 8a 46 bd 63 09 b8 3c
       -0.016546708 0.023756664 -0.0484718 0.022465413
0000f0 6c c6 29 bd 37 a1 f9 bc dc 91 d4 3d 7e 79 ae bd
       -0.041448995 -0.030472381 0.10379383 -0.085192665

net.4.weight f4 [3, 64]
000000 9e aa a6 3d 18 ce 65 bd 6c ba 22 3e 4e fe 3a be
       0.081380114 -0.05610475 0.15891427 -0.18261072
000010 80 db be bd 69 48 db bd 49 b8 00 3e 99 90 f6 bd
       -0.0931921 -0.107071705 0.12570299 -0.120392986
000020 89 dd 11 3d 4e 36 cd 3d a9 29 94 bd 36 3c fe 3c
       0.035611663 0.100201234 -0.072345085 0.03103457
000030 44 53 e8 3d 39 01 98 bd b9 ec dd 3d 45 5e bc bd
       0.11344007 -0.07422108 0.10836167 -0.09197668
000040 d4 44 e9 bd 71 38 ec 3c 25 f7 13 be 06 71 9a 3d
       -0.11390081 0.028835507 -0.14449747 0.07541089
000050 25 26 3e 3d e4 66 0d 3d 7c 00 1e 3e 79 83 cc bd
       0.046423096 0.034521952 0.15429872 -0.09986014
000060 97 ec 66 3d 32 55 12 be 8a 16 c5 3d a2 b9 1c bc
       0.056377973 -0.14290312 0.096234396 -0.009565743
000070 84 b3 13 bd a3 bf 44 3c ac bc eb bd 34 70 96 3d
       -0.03605987 0.01200858 -0.11510596 0.0734562
000080 aa 60 9c bd a0 14 ad 3d f1 a5 35 3d 85 b2 b3 3d
       -0.07635625 0.084511995 0.044347707 0.08774284
000090 7a 2e 39 bd df e9 de 3c 95 d7 17 3e c0 0b 29 bc
       -0.04521034 0.027211128 0.14828332 -0.010317743
0000a0 cd 14 2f be 6b 52 5e 3d fc 19 a2 bd 96 44 18 3d
       -0.17097779 0.05427782 -0.079151124 0.037174784
0000b0 a6 7f 4c 3d a5 18 65 bd 78 89 66 bc 34 10 fd 3d
       0.049926423 -0.055931706 -0.014070861 0.12356606
0000c0 6a b5 c1 3b 7c 9c 0a be 18 7f 22 3d 23 70 a4 3d
       0.005911519 -0.13536257 0.039671987 0.08029201
0000d0 cb ef fc bd 55 a7 d6 bd 8a 5b 21 3c 48 66 0c be
       -0.123504244 -0.10481135 0.009848485 -0.13710892
0000e0 4c 1c 1b be d5 55 15 be a1 e3 8f bd bb 4c 28 be
       -0.15147513 -0.14583524 -0.07025839 -0.1643552
0000f0 b1 55 e5 bc a0 39 6d bc db d1 a3 3d a0 fb 12 bc
       -0.027994962 -0.014479071 0.07999011 -0.008971125
000100 73 96 28 be 38 9e b5 bd d6 f2 05 be 21 ba b2 3d
       -0.16463642 -0.088680685 -0.13080916 0.087269075
000110 6a 7a 03 3e 56 c3 29 be 6b 05 34 3e de 6f f3 3d
       0.12839666 -0.16578421 0.17580192 0.11886571
000120 b3 3b 8d bd fa 68 1e be a5 61 16 3e aa 42 1d be
       -0.06896152 -0.15469733 0.14685686 -0.15357462
000130 4f 30 22 bd f8 e3 93 bd 1e d5 47 3c df 68 2d 3e
       -0.039596852 -0.07221216 0.012196807 0.16934536
000140 5a a9 32 3e 21 ba 70 bd bd 78 87 3d 2e 55 9f 3c
       0.17447415 -0.058771256 0.06614826 0.019449797
000150 4c b2 0e be 90 68 62 3c c9 9e d5 bd 20 2b c4 3d
       -0.13935202 0.013818875 -0.104306765 0.09578538
000160 64 dd a8 3d 08 25 e9 3c 60 50 9b 3d a4 03 f9 3d
       0.08245352 0.02846004 0.0758369 0.121588975
000170 cd 83 50 3d 4e e2 11 be f5 87 19 3e be 31 00 be
       0.050906945 -0.14246485 0.1499327 -0.12518975
000180 dc 5c b5 bd e8 10 95 bd 53 75 32 3e ad 52 ac 3c
       -0.08855602 -0.07278615 0.17427568 0.021035517
000190 56 4f 98 bc 27 55 8b 3d a2 e7 55 3d 3c e8 2b bd
       -0.018592518 0.06803351 0.052222855 -0.041969523
0001a0 bf 68 20 be 6b b5 89 bd 38 ae 9d bd dd 41 2b be
       -0.15664957 -0.06724056 -0.07699245 -0.16724344
0001b0 59 f1 1c be b3 ca 1a 3e df ba 84 3d e1 37 24 3e
       -0.15326442 0.15116386 0.06480955 0.16036941
0001c0 32 58 97 3b 69 1c 6f 3d e3 f1 d1 3c 27 7d 8a 3d
       0.004618668 0.058376703 0.025628036 0.06762152
0001d0 12 d3 d0 bc 87 55 33 3e 35 ea 1e bd b0 a2 08 bd
       -0.025491271 0.17513095 -0.038797576 -0.033358276
0001e0 a0 d7 3e bd 15 b0 92 3d 0c 3e d8 3c b6 d8 a0 bd
       -0.046592355 0.07162491 0.026396774 -0.07853834
0001f0 4a 56 f4 3d 28 66 f5 bc 09 59 18 3d dc 8f fb bd
       0.11930521 -0.029955938 0.037194286 -0.122832984
000200 36 d3 42 3d 92 4f a8 bd 5a 99 a5 bc 67 5b 88 3d
       0.047564708 -0.08218302 -0.020214725 0.066580586
000210 22 55 f9 bd 01 b8 50 3d d9 32 d1 bd de 90 f3 bd
       -0.12174441 0.05095673 -0.102147765 -0.118928656
000220 e0 00 f1 bd 77 97 cf bd 78 1d e3 bd 2d a3 0d bd
       -0.11767745 -0.101363115 -0.11089605 -0.034579445
000230 22 af 8a bd 74 02 8b 3d 36 e3 05 3e 0d 46 da bc
       -0.06771685 0.06787577 0.13074955 -0.026644731
000240 15 bc 19 be e0 ad 18 3e b1 90 7f 3d 8d 86 8a bd
       -0.15013154 0.14910078 0.062393848 -0.06763945
000250 9c 23 3b 3e 28 bf 44 3d d0 7f 10 3d 13 00 b7 3c
       0.18275303 0.048033863 0.03527814 0.022338903
000260 20 20 04 be 71 55 8e 3c 74 dd c3 bd 12 14 a9 bd
       -0.1290288 0.017374726 -0.09563723 -0.08255781
000270 68 bc d2 bc 58 70 f0 3d 92 19 97 bd b5 65 d7 3d
       -0.025724605 0.11740178 -0.07377924 0.10517446
000280 9e 65 2a 3e b4 1f c9 3d 98 c5 1d bd bd c6 c0 bd
       0.16640326 0.098205 -0.03851852 -0.09412906
000290 67 ad 5c 3d 41 81 a2 3d 3d c2 9f bd 54 56 3e bd
       0.053876307 0.079348095 -0.0780072 -0.046469048
0002a0 b4 95 eb 3d 23 51 19 be e4 87 7c 3d 24 c2 a5 3d
       0.11503163 -0.14972357 0.061653033 0.0809367
0002b0 bf 0f c7 bd 8a bc eb 3d 8e 35 d9 bd 4b 5f 0c 3d
       -0.097198 0.1151057 -0.10605918 0.034270566
0002c0 7b b3 84 3d ce f9 1e 3e fd e4 c4 3d e5 80 34 be
       0.06479546 0.1552498 0.096139885 -0.17627294
0002d0 e1 24 0c 3e 32 5b 31 be 8f d7 75 3c e1 cf 96 3d
       0.13685943 -0.17319945 0.015005006 0.073638685
0002e0 d2 9f 62 3d 06 ce f8 3d e6 bd 00 3e 7d 44 e3 3d
       0.055328198 0.12148671 0.1257244 0.110970475
0002f0 4d e8 c0 3d f0 f5 8a bc b3 1e 31 be aa d9 eb 3d
       0.09419308 -0.016962975 -0.17296867 0.115161255

net.4.bias f4 [3]
000000 ab 8a 47 3b d7 19 76 3d 89 62 e5 bd
       0.0030447643 0.060083237 -0.11200435
